DDPG/saved models/actor_params.pth (torch_old, 524603 bytes, 6 tensors)

fc1.weight f4 [400, 24]
0.1175999 0.45360017 -0.33889583 -0.24149676 0.28211933 -0.21685529 -0.3713234 -0.19151312
0.10699611 0.36011034 0.12117941 0.22143792 0.6094121 -0.47539705 0.12417339 0.24007607
0.20135069 0.39062816 0.088084936 0.13662703 0.7310297 -1.0814198 0.04344679 0.0685874
0.5249694 -0.0022391095 -0.01667314 -0.20671754 0.56004703 -0.2849646 0.01169542 -0.16056201
0.56082094 0.040602773 0.032968573 -0.3728838 0.75155306 -0.50122386 0.0686034 -0.3821547
0.6078266 0.1323343 -0.08730505 -0.44461757 0.796983 -0.52183485 -0.036706578 -0.46398136
0.82727647 0.33678108 -0.04257464 0.067767605 1.0333174 -0.9461025 -0.028775565 0.07715875
0.21764012 0.1447681 0.046757657 -0.039380122 1.2599326 -0.43408436 -0.031598948 -0.02436528
0.24976747 0.186241 -0.0147656435 -0.26726592 0.949164 -0.47981527 0.018511359 -0.30693388
0.6286446 0.7809063 -0.10992292 0.4503082 0.1662101 -0.44964314 -0.10292749 0.4545994
0.41054115 0.7547031 -0.101297304 0.1457314 0.47734648 0.028217748 -0.056745935 0.168919
0.35524553 0.55078655 -0.09159484 0.053306475 0.6819509 0.25280714 -0.080706716 0.04221044
0.18326354 -0.25348777 0.16635402 -0.122138426 0.5767508 0.029963361 0.12204371 -0.07248711
0.2764963 -0.20705824 0.099420846 -0.12904428 -0.032761183 0.2333752 0.09507835 -0.17171912
0.50608367 -0.1192909 0.16597702 0.33369616 -0.59423095 0.7002799 0.13750117 0.30450675
0.6061199 0.44527656 0.12550345 -0.052793637 -0.06783929 -1.1104999 0.120956615 -0.114783905
0.5235452 0.29526618 0.1284202 -0.2208967 -0.46406874 -0.8382069 0.08285982 -0.2274706
0.5446423 0.42984232 0.1923905 0.034416273 -0.5624218 -0.7283591 0.20028432 -0.038701814
0.47324055 -0.5675705 -0.1337658 0.114250876 0.79418325 -0.29617655 -0.10504093 0.171573
0.4277761 -0.61622113 -0.082472436 0.14328445 0.73535246 -0.52342236 -0.028077267 0.12898356
0.4949405 -0.6460408 -0.18629527 -0.45275515 0.3946487 -0.8339351 -0.1623174 -0.46792167
0.40327993 0.9107071 0.03789301 0.17042771 -0.040635485 -0.6370917 -0.022572394 0.1150034
0.4738413 0.9244175 -0.00067674345 -0.051679224 -0.123791784 -1.0690501 0.03800703 0.044630103
0.7230296 0.9862239 0.024723772 0.3543069 -0.046892572 -1.6197221 0.010220568 0.37195936
0.2992447 0.74372506 -0.03876437 -0.12022593 -0.17700985 -0.9509119 -0.04461742 -0.16294521
0.31254938 0.5274925 -0.03985706 -0.4202984 0.27969798 -0.6930581 -0.050328836 -0.4126567
0.47799233 0.23710652 -0.031392876 -0.38468164 0.6407554 -0.3460168 -0.028977713 -0.35690954
0.34032574 0.32752675 -0.07573678 0.37019327 0.116655946 -0.86471456 -0.09980569 0.333648
0.32971045 0.4459178 -0.04536303 0.16027424 0.25615227 -1.1425365 -0.052578248 0.17768078
0.33979645 0.41685715 -0.03423111 -0.027523182 0.50846916 -1.3893524 -0.08981829 -0.0072883787
0.5279301 -0.29814994 -0.042466056 0.48128188 1.324567 -0.48838556 -0.069319434 0.42498523
0.48413807 -0.3409208 -0.10786248 -0.0377989 1.5670029 -0.57136387 -0.15074323 0.011713165
00000000: 37d8 f03d 483e e83e c183 adbe ed4a 77be
00000010: f271 903e 500f 5ebe 1a1e bebe 041c 44be
00000020: c720 db3d 6260 b83e e92c f83d 9fc0 623e
00000030: 6e02 1c3f 3e67 f3be 9e4e fe3d 80d6 753e
00000040: e02e 4e3e 6a00 c83e e065 b43d f5e7 0b3e
00000050: c324 3b3f f76b 8abf 43f5 313d 8d77 8c3d
00000060: 6564 063f 06be 12bb 1c96 88bc c3ad 53be
00000070: 3e5f 0f3f e1e6 91be 269e 3f3c 5e6a 24be
00000080: f691 0f3f 184f 263d 0e0a 073d a0ea bebe
00000090: c865 403f 3550 00bf f07f 8c3d c8a9 c3be
000000a0: 869a 1b3f a582 073e fdcc b2bd eaa4 e3be
000000b0: 1407 4c3f f896 05bf a359 16bd f78e edbe
000000c0: 64c8 533f 926e ac3e bf62 2ebd bec9 8a3d
000000d0: bf43 843f c633 72bf bcba ebbc 6805 9e3d
000000e0: 0ddd 5e3e 173e 143e f584 3f3d 0d4d 21bd
000000f0: 7945 a13f 4e40 debe e66d 01bd b299 c7bc
00000100: 0bc3 7f3e f6b5 3e3e 99eb 71bc 14d7 88be
00000110: 69fc 723f 59aa f5be 22a5 973c 7026 9dbe
00000120: daee 203f 7ae9 473f 451f e1bd cc8e e63e
00000130: fb32 2a3e a037 e6be a6cb d2bd 41c1 e83e
00000140: 7332 d23e 3934 413f f674 cfbd 9d3a 153e
00000150: c266 f43e e828 e73c 6d6e 68bd 1af9 2c3e
00000160: bee2 b53e 5900 0d3f 1396 bbbd e457 5a3d
00000170: 5694 2e3f f06f 813e 9049 a5bd dbe4 2c3d
00000180: 70a9 3b3e 26c9 81be b558 2a3e b623 fabd
00000190: f1a5 133f b975 f53c 0df2 f93d 1f74 94bd
000001a0: ec90 8d3e 1307 54be 289d cb3d 2f24 04be
000001b0: 9730 06bd e9f9 6e3e 70b8 c23d 23d7 2fbe
000001c0: b38e 013f ca4e f4bd e1f5 293e 39da aa3e
000001d0: 851f 18bf 8b45 333f 1bcd 0c3e 4fe8 9b3e
000001e0: ac2a 1b3f 4afb e33e fa83 003e 243e 58bd
000001f0: 53ef 8abd dc24 8ebf 1ab8 f73d d313 ebbd
00000200: 0f07 063f 212d 973e 9680 033e bf32 62be
00000210: 6b9a edbe ba94 56bf 69b2 a93d 0eee 68be
00000220: ae6d 0b3f 4b14 dc3e 0402 453e 14f8 0c3d
00000230: e0fa 0fbf be75 3abf 5517 4d3e cb85 1ebd
00000240: 964c f23e 4d4c 11bf e7f9 08be 5dfc e93d
00000250: 984f 4b3f 74a4 97be b31f d7bd d5b0 2f3e
00000260: 7805 db3e abc0 1dbf 4fe7 a8bd 29b9 123e
00000270: 0f40 3c3f 02ff 05bf 4c02 e6bc 4414 043e
00000280: d768 fd3e ee62 25bf 30c4 3ebe 86cf e7be
00000290: 650f ca3e c57c 55bf 8836 26be 6e93 efbe
000002a0: b57a ce3e 1a24 693f b335 1b3d 9a84 2e3e
000002b0: 6571 26bd 7118 23bf bee9 b8bc e786 eb3d
000002c0: 549b f23e a0a6 6c3f 7c67 31ba 98ad 53bd
000002d0: 8c86 fdbd a2d6 88bf 42ad 1b3d 0ece 363d
000002e0: 7818 393f 2b79 7c3f 8289 ca3c b767 b53e
000002f0: 6d12 40bd 0e53 cfbf 2b74 273c 7571 be3e
00000300: 9a36 993e c464 3e3f 63c7 1ebd 0339 f6bd
00000310: 1242 35be f66e 73bf c1c0 36bd 1cdb 26be
00000320: 7906 a03e c009 073f 2841 23bd 5a31 d7be
00000330: 9334 8f3e 416c 31bf 9c25 4ebd bd47 d3be
00000340: 69bb f43e 0dcc 723e d195 00bd fef4 c4be
00000350: 8c08 243f 1d29 b1be ab62 edbc d9bc b6be
00000360: 2d3f ae3e 96b1 a73e e31b 9bbd f989 bd3e
00000370: 50e9 ee3d ef5d 5dbf ed66 ccbd e9d3 aa3e
00000380: cfcf a83e 564f e43e 96ce 39bd ee1e 243e
00000390: 6426 833e a33e 92bf 4a5c 57bd f3f1 353e
000003a0: cdf9 ad3e 4d6e d53e ec35 0cbd 4c78 e1bc
000003b0: 092b 023f 4dd6 b1bf a7f2 b7bd 5ad3 eebb
000003c0: 6d26 073f 1ca7 98be e3f0 2dbd 946a f63e
000003d0: 698b a93f ac0d fabe 59f7 8dbd aa97 d93e
000003e0: f2e0 f73e 2c8d aebe 01e7 dcbd 05d3 1abd
000003f0: 8d93 c83f e744 12bf 6f5c 1abe 93e8 3f3c

fc1.bias f4 [400]
0.109613515 -0.7587176 -0.64072275 -0.425499 -0.104964525 -0.53838897 -0.40666762 -0.68273723
-0.6875303 -0.4780948 -0.13460664 -0.63234633 -1.0148854 0.25293285 -0.46524367 -0.27922347
-0.58378404 -0.46508217 -0.52734596 0.18497162 -0.46647716 0.60685444 -0.40601128 -0.3430567
-0.23134284 -1.0530003 0.18643714 -0.7644012 0.16994257 -0.59873754 -0.65775025 -0.48330343
0.07462741 -0.012336233 -0.0064226086 -0.26102263 -0.31103632 0.12203852 -0.7275002 -0.37921154
-0.5174342 -0.55411375 0.15286437 -0.6990879 -0.14012016 -0.22495055 0.44821492 -0.60913277
-0.57469136 -1.1252179 -0.33219552 -0.21942586 -0.25040966 -0.4120837 -0.31514603 -0.898805
-0.45267543 -0.11188659 -0.085503094 0.0017875871 -0.6303693 -0.526409 -1.1431706 -0.16246852
-0.2806235 0.089391045 -0.35752076 0.46550015 -0.2454233 -0.17747362 -0.71797174 0.30031893
-0.39947414 0.13893594 0.0037517506 -0.5447694 -0.3150589 -1.2411443 -0.12644522 -0.23936763
-0.10001375 -0.4850738 -0.7919742 -0.75670147 -0.17130013 -0.21431285 -0.08748507 -0.055213626
-0.28153357 -0.92489916 0.8451708 -0.25981328 -1.1173319 -0.016316237 -0.803155 0.031715263
-0.82426697 -0.10326858 -0.591665 -0.915335 -0.50521183 -0.6684879 -0.9370702 -0.70394886
0.24791747 -0.42872182 0.37550572 -0.7262131 -0.62414986 -0.6815467 -0.45972696 -0.6687885
-0.09803349 -0.606885 -0.5168413 -0.44437593 -0.5162785 -0.51179963 -1.4826766 -1.0029328
-0.035395566 -0.03458364 -1.0747178 -0.8413802 -0.21663886 -0.3096441 -0.70406145 -0.20293596
-0.7830786 -0.50495744 -0.5402504 -0.17986867 -0.030303659 -0.123100266 -0.8410321 -0.31780586
-0.35560852 -0.448798 -0.5885268 -0.6652289 -0.3006192 -0.93653774 -0.05315844 -0.47466943
-0.27864933 -0.26198682 -0.35875875 -0.47304046 -0.77249086 -0.83603233 -0.79559404 -0.7776983
-0.67290056 -0.2548339 -0.22749501 -0.53085786 -0.57777286 -0.83122945 -0.84346205 -0.8852783
-0.17694819 -0.048865817 -0.6999446 -0.31662712 -0.5473246 -0.38580307 -0.19690473 -0.25292525
-0.53601944 0.076546885 -0.71919644 -0.1689771 -0.4086274 -0.08345725 -0.28396168 -0.63199496
-0.7113892 -0.123717554 -0.92302597 0.5172471 -0.31470612 -0.449618 -0.89885354 -0.51156163
-0.14088085 -0.3688681 -0.46609676 -0.5470031 -0.43068963 -0.29520154 0.50976807 -1.5123048
-0.25421414 -0.24974595 -0.59483534 -0.39532605 -1.0603125 -0.42559657 -0.070434734 -0.08742583
-0.5459356 -0.44572264 -0.22217076 -0.5697907 0.07134402 -0.117958106 -0.63519484 -0.4521854
-0.18724272 -0.8553715 0.08343938 -0.3568136 -1.4237915 -0.45782393 0.16895045 0.08744601
-0.70437473 -0.42759547 -0.74330264 -0.6704348 -0.4679116 -0.11761009 -0.13592876 -0.4496235
-0.57505125 -0.34886435 -0.5164126 -0.23068641 -0.088664606 -1.1332179 -0.3950883 -0.20745428
-0.2572619 -1.0028319 0.17817818 -0.50928724 -0.056924593 0.047425583 -0.32286155 -0.12330602
-0.22266537 -0.2961623 -0.90462667 -0.47724265 -0.57199126 -0.56140023 -0.29605302 -0.3703307
-0.4463892 -0.26767516 -0.84054464 -0.44069546 0.24826689 -0.33530393 -1.3016282 -0.70224327
00000000: 0d7d e03d 513b 42bf 6806 24bf 01db d9be
00000010: a4f7 d6bd dcd3 09bf bd36 d0be dec7 2ebf
00000020: fc01 30bf d7c8 f4be 53d6 09be 73e1 21bf
00000030: c4e7 81bf 6a80 813e 6b34 eebe 61f6 8ebe
00000040: df72 15bf 401f eebe 2500 07bf 3369 3d3e
00000050: 18d6 eebe d05a 1b3f b6e0 cfbe 21a5 afbe
00000060: 23e5 6cbe b7c8 86bf 61e9 3e3e ccaf 43bf
00000070: 6d05 2e3e dd46 19bf 5262 28bf 8c73 f7be
00000080: 41d6 983d e91d 4abc bf74 d2bb c2a4 85be
00000090: 2740 9fbe 55ef f93d 743d 3abf 0428 c2be
000000a0: 9176 04bf 66da 0dbf 7a88 1c3e 6df7 32bf
000000b0: a97b 0fbe 7059 66be 6d7c e53e 20f0 1bbf
000000c0: f91e 13bf 2407 90bf 8815 aabe 2cb1 60be
000000d0: b235 80be a2fc d2be d25a a1be 1618 66bf
000000e0: 13c5 e7be cc24 e5bd 3f1c afbd 784d ea3a
000000f0: e25f 21bf bdc2 06bf 6a53 92bf 265e 26be
00000100: e2ad 8fbe a712 b73d f60c b7be 0956 ee3e
00000110: 3f50 7bbe a5bb 35be ffcc 37bf 67c3 993e
00000120: e087 ccbe 3945 0e3e eedf 753b 0276 0bbf
00000130: 664f a1be d1dd 9ebf db7a 01be ca1c 75be
00000140: 02d4 ccbd 985b f8be d2be 4abf 30b7 41bf
00000150: 4d69 2fbe d474 5bbe 5f2b b3bd af27 62bd
00000160: 2b25 90be 31c6 6cbf 1d5d 583f 3f06 85be
00000170: bb04 8fbf a1a9 85bc 919b 4dbf dde7 013d
00000180: 2903 53bf 7a7e d3bd 5c77 17bf 6553 6abf
00000190: 9055 01bf 0622 2bbf d5e3 6fbf fe35 34bf
000001a0: 14de 7d3e 6d81 dbbe 4942 c03e 1ae9 39bf
000001b0: 49c8 1fbf d879 2ebf 5561 ebbe b935 2bbf
000001c0: c8c5 c8bd d15c 1bbf b64f 04bf 3e85 e3be
000001d0: d42a 04bf 4d05 03bf 59c8 bdbf 1a60 80bf
000001e0: f1fa 10bd 93a7 0dbd 5a90 89bf b164 57bf
000001f0: 94d6 5dbe ac89 9ebe 5f3d 34bf 72ce 4fbe
00000200: d777 48bf e444 01bf da4d 0abf 7e2f 38be
00000210: 613f f8bc fe1b fcbd e14d 57bf 73b7 a2be
00000220: 5212 b6be dac8 e5be b1a9 16bf 714c 2abf
00000230: c3ea 99be f0c0 6fbf aabc 59bd df07 f3be
00000240: 20ab 8ebe 2323 86be 3aaf b7be 5c32 f2be
00000250: f6c1 45bf 3706 56bf 0dac 4bbf 3c17 47bf
00000260: 3643 2cbf 9779 82be 74f4 68be 4de6 07bf
00000270: ece8 13bf 74cb 54bf 21ed 57bf 99a1 62bf
00000280: e831 35be 8627 48bd 922f 33bf f31c a2be
00000290: 771d 0cbf fb87 c5be 65a1 49be 6b7f 81be
000002a0: 9238 09bf 9dc4 9c3d 421d 38bf 5508 2dbe
000002b0: 9c37 d1be a2eb aabd 6d63 91be 6cca 21bf
000002c0: 9a1d 36bf a15f fdbd 6e4b 6cbf 4e6a 043f
000002d0: 2921 a1be 5534 e6be 441b 66bf b4f5 02bf
000002e0: 1243 10be 48dc bcbe 3ca4 eebe 6508 0cbf
000002f0: 5a83 dcbe a824 97be 2980 023f 3493 c1bf
00000300: 5b28 82be 67bd 7fbe 2147 18bf 2d68 cabe
00000310: 52b8 87bf cbe7 d9be 1640 90bd 500c b3bd
00000320: 6fc2 0bbf c235 e4be bb80 63be cedd 11bf
00000330: d01c 923d 0594 f1bd 219c 22bf d884 e7be
00000340: 8ebc 3fbe a0f9 5abf 44e2 aa3d 46b0 b6be
00000350: cd3e b6bf e667 eabe 5901 2d3e e516 b33d
00000360: e751 34bf cbed dabe 1549 3ebf 9da1 2bbf
00000370: 1c92 efbe 8fdd f0bd e930 0bbe 0d35 e6be
00000380: 8f36 13bf 599e b2be 9e33 04bf 0f39 6cbe
00000390: ca95 b5bd 490d 91bf 0349 cabe e56e 54be
000003a0: d5b7 83be cc5c 80bf 5774 363e a660 02bf
000003b0: c329 69bd 5441 423d 1c4e a5be de87 fcbd
000003c0: 6402 64be 96a2 97be 9d95 67bf 2659 f4be
000003d0: 056e 12bf edb7 0fbf 4394 97be fc9b bdbe
000003e0: 208d e4be b80c 89be ef2d 57bf d6a2 e1be
000003f0: ad39 7e3e f5ac abbe c19b a6bf 37c6 33bf

fc2.weight f4 [300, 400]
-0.20456497 0.17488594 -0.3270648 -0.20692386 0.17742668 -0.29937205 0.0142638385 -0.34649828
-0.20704693 0.039588694 -0.296651 0.15056366 0.059206188 0.17870963 0.18273094 -0.07102059
-0.018226832 -0.3154552 -0.053953264 -0.36628547 0.30036396 0.22760983 0.40190038 -0.47038162
-0.15977086 -0.00799051 -0.29086825 0.37171537 0.37498006 -0.07730803 0.1420477 0.42444122
-0.8334628 0.13920301 -0.44653124 -0.18862294 0.32639012 0.006343764 0.24239802 -0.84792125
0.4488892 0.09426336 -0.3440181 0.71776253 -0.48065114 0.05720306 -0.36854047 0.21654323
-0.33256054 -0.22525716 -0.07908218 -0.060628824 -0.0014388779 0.11039005 0.20093367 -0.23267147
0.4319904 0.10353861 -0.25846165 0.39986846 -0.15096788 0.17673363 -0.12849616 0.39195582
0.48516664 0.01866472 -0.122777484 0.20911033 -0.75111896 -0.06357641 0.35443833 0.093563706
0.23019229 0.20122305 -0.51079863 0.017835429 -0.4185755 0.008236823 0.20148183 0.54662377
0.054424513 0.18527263 -0.007275767 0.29669395 0.33923844 0.5415504 0.027627088 0.17186995
-0.056554276 -0.14162152 -1.121089 0.1398377 -0.18213856 -0.52739334 0.4930445 -0.14352125
0.25749815 -0.0081548495 0.342789 -0.5555967 0.07337115 0.44389507 -0.124532424 0.014016529
-0.049530003 0.4326417 0.33870393 0.25537425 -0.08678296 0.29296046 0.35637543 -0.6152279
0.25468552 0.29283166 0.16578811 0.14540574 0.44830397 0.16802773 0.15986161 0.14899115
-0.2939943 0.22648789 0.40013978 -0.04585897 -0.026904186 -0.25071084 -0.20862113 0.12711476
-0.094625026 -0.56266934 -0.23634943 0.0668181 0.047577176 0.0088848835 -0.042479288 0.20182058
-0.06390065 -1.0155373 0.00818371 0.19231729 0.40642092 0.31785852 -0.1628444 0.043481246
0.3335036 -0.18831256 0.10595578 -0.047560487 0.02697988 -0.29234108 0.60988903 0.3302443
-0.20609641 0.18663727 0.19228412 0.21581417 0.41022697 0.11880077 -0.044515215 0.1478619
-0.33108622 -0.60823005 0.30211222 -0.06833797 -0.052235488 0.615015 -0.39810693 -0.13646996
0.010437222 -0.31983796 -0.46874014 -0.015385211 -0.055690084 0.122888446 -0.04473449 -0.0862175
0.16023463 -0.29037246 -0.0033824153 -0.25370833 0.26719144 0.021038674 -0.06073893 0.16126385
0.048639886 -0.14888118 -0.70693475 -0.043502063 0.6876899 0.17752859 -0.22553161 0.2468648
0.36981854 -0.026267445 0.17387043 0.5909001 0.3303023 -0.06213287 -0.5515926 0.5181582
0.6490235 -0.32608727 0.35048983 0.05191582 -1.2325425 -0.3219402 -0.6243202 -0.11147905
-0.040832527 0.102631986 -0.10687143 0.29322293 0.19410494 0.15215074 -0.13330829 0.26224747
0.43563184 -0.6360102 0.2518104 0.45336947 -0.058344174 -0.24684922 -0.1278046 0.09088961
-0.05951331 0.48398432 0.21881136 0.14234067 -0.015448473 -0.028055506 0.16438648 -0.006854427
-0.37730712 0.17971204 -0.0068106297 0.022154206 -0.1955672 -0.4472727 0.30664766 -0.3127752
-0.058276355 -0.13075295 0.016878119 -0.14809692 -0.022256149 -0.48944896 -0.011043413 -0.14622466
0.20613462 0.1711222 0.2767834 -0.18638675 -0.37086582 0.13621143 0.03611046 -0.039765485
00000000: 7b79 51be 4d15 333e 0a75 a7be d9e3 53be
00000010: 57af 353e 4b47 99be e0b2 693c 3968 b1be
00000020: 1c04 54be c127 223d a4e2 97be 5c2d 1a3e
00000030: 3082 723d a8ff 363e d21d 3b3e 3e73 91bd
00000040: 7050 95bc 5883 a1be 19fe 5cbd c589 bbbe
00000050: 4ec9 993e 8d12 693e e3c5 cd3e dcd5 f0be
00000060: f99a 23be a1ea 02bc afec 94be 7a51 be3e
00000070: 63fd bf3e ac53 9ebd f474 113e 5c50 d93e
00000080: d15d 55bf 3c8b 0e3e be9f e4be 5f26 41be
00000090: 9b1c a73e 59df cf3b 3037 783e 5e11 59bf
000000a0: ced4 e53e 260d c13d 2423 b0be 49bf 373f
000000b0: e817 f6be c14d 6a3d 56b1 bcbe 82bd 5d3e
000000c0: 6045 aabe d0a9 66be d7f5 a1bd ee55 78bd
000000d0: bb98 bcba 2e14 e23d 8ec1 4d3e 6e41 6ebe
000000e0: d92d dd3e 0d0c d43d 1655 84be 8fbb cc3e
000000f0: 5397 1abe a9f9 343e 7f94 03be 6fae c83e
00000100: c367 f83e c1e6 983c c372 fbbd 0521 563e
00000110: 5549 40bf 5934 82bd f178 b53e 549e bf3d
00000120: 87b7 6b3e 6a0d 4e3e b3c3 02bf 9b1b 923c
00000130: 874f d6be bdf3 063c 4151 4e3e 89ef 0b3f
00000140: 3dec 5e3d 1cb8 3d3e 8f69 eebb 45e8 973e
00000150: a9b0 ad3e 0ca3 0a3f 3452 e23c adfe 2f3e
00000160: 75a5 67bd 3b05 11be d87f 8fbf 9d31 0f3e
00000170: 8882 3abe 4003 07bf 5470 fc3e 3cf7 12be
00000180: ccd6 833e eb9b 05bc 0a82 af3e 963b 0ebf
00000190: 9d43 963d 3746 e33e db0a ffbd 95a5 653c
000001a0: f9df 4abd 3783 dd3e 9a6a ad3e 6ac0 823e
000001b0: 44bb b1bd eafe 953e d776 b63e 937f 1dbf
000001c0: 2466 823e 08ee 953e 5cc4 293e 3ee5 143e
000001d0: 1988 e53e 760f 2c3e c3b2 233e 2391 183e
000001e0: 6c86 96be 71ec 673e 1fdf cc3e 9ed6 3bbd
000001f0: 2b66 dcbc 2c5d 80be c7a0 55be 5f2a 023e
00000200: c4ca c1bd 190b 10bf 9605 72be eed7 883d
00000210: 49e0 423d e791 113c c3fe 2dbd 0eaa 4e3e
00000220: 58de 82bd 20fd 81bf f814 063c d3ee 443e
00000230: 6716 d03e 5abe a23e afc0 26be 6419 323d
00000240: fcc0 aa3e 02d5 40be 58ff d83d c9ce 42bd
00000250: e904 dd3c bbad 95be b021 1c3f c815 a93e
00000260: f00a 53be d71d 3f3e 21e6 443e 64fe 5c3e
00000270: 4509 d23e d14d f33d 9655 36bd 1c69 173e
00000280: 2284 a9be f7b4 1bbf 74ae 9a3e c7f4 8bbd
00000290: e1f4 55bd 9f71 1d3f acd4 cbbe c8be 0bbe
000002a0: e200 2b3c cdc1 a3be b5fe efbe 4112 7cbc
000002b0: 491b 64bd f0ac fb3d 833b 37bd cd92 b0bd
000002c0: 8c14 243e b3ab 94be 83ab 5dbb 0fe6 81be
000002d0: 51cd 883e 4c59 ac3c 62c9 78bd 5a22 253e
000002e0: 9e3a 473d 4f74 18be adf9 34bf 382f 32bd
000002f0: 720c 303f 0eca 353e c2f1 66be 20ca 7c3e
00000300: db58 bd3e d32e d7bc 170b 323e 3b45 173f
00000310: 621d a93e 097f 7ebd 2c35 0dbf 04a6 043f
00000320: 6726 263f e9f4 a6be 6773 b33e afa5 543d
00000330: f4c3 9dbf 59d5 a4be 73d3 1fbf 214f e4bd
00000340: 0240 27bd b830 d23d 69df dabd 5121 963e
00000350: 72c3 463e 67cd 1b3e f881 08be 4d45 863e
00000360: 230b df3e 91d1 22bf 4bed 803e 0b20 e83e
00000370: 4dfa 6ebd 0bc6 7cbe 36df 02be 5524 ba3d
00000380: 3bc4 73bd cbcc f73e 1610 603e c1c1 113e
00000390: 981b 7dbc a9d4 e5bc ee54 283e 1a9b e0bb
000003a0: 662e c1be 6f06 383e b42b dfbb bd7c b53c
000003b0: c542 48be ed00 e5be ec00 9d3e 1224 a0be
000003c0: 30b3 6ebd 1ae4 05be fb43 8a3c b8a6 17be
000003d0: 8752 b6bc 0e99 fabe 6eef 34bc ebbb 15be
000003e0: f414 533e a83a 2f3e 8eb6 8d3e 2bdc 3ebe
000003f0: 20e2 bdbe 027b 0b3e 90e8 133d 22e1 22bd

fc2.bias f4 [300]
-0.007476591 -0.29717886 -0.2829025 -0.6796219 -0.06503503 0.022194779 -0.06920679 -0.044808775
-0.99508315 -0.041427635 -0.037515804 -0.40145287 -0.03642763 -0.33964947 0.04452395 -0.6384789
-0.09738687 -0.18544218 0.0054045925 -0.048308372 -0.08362336 -0.06600618 -0.59746975 -0.49946114
0.006635621 -0.0026964233 -0.18554474 -1.0216693 -0.26102528 -0.7207979 0.016061388 -0.53940666
-0.11073935 -0.32419214 0.08465766 0.08457175 -0.07505851 -0.30428657 -0.073751815 -0.41957086
-0.06948209 0.20309572 0.01818187 -0.039911125 -0.117157936 -0.34685212 -0.070640944 -0.092347346
-0.21200302 -0.17047462 -0.7023025 -0.7086626 -0.33451188 -0.097867966 -0.5605068 -0.11381144
0.07605896 -0.04617862 -0.030893581 -0.0611173 -0.43140543 0.30432457 -0.15131946 -0.20664619
-0.6202795 -0.055320486 -0.26800165 -0.18223733 -0.06446696 -0.017442154 -0.04731657 -0.051677436
-0.057266906 -0.07218322 -0.5442489 -0.026997063 -0.06427706 0.076491766 -0.065617286 -0.3698135
-0.024176957 -0.49061832 0.40982586 -0.27702537 -0.059783906 -1.0337001 -0.09971102 -0.105394766
-0.36668527 -0.0690232 -0.14971696 -0.39142656 -0.22282234 -0.13137844 -0.7274096 -0.36100847
-0.42935076 -0.790032 -0.07275438 -0.15086524 -0.105221905 -0.32808608 -0.78760713 -0.18337968
-0.36966756 -0.57996875 -0.32640892 -0.11943543 0.021801801 -0.45021802 -0.074163415 -0.05862384
-0.41770267 -0.084238485 -0.0011490609 -0.35133672 -0.019925833 0.08881873 -0.006514268 -0.05114176
-0.97905254 -0.08284723 -0.119909465 -0.59366393 -0.8109398 -0.06836883 -0.7927289 -0.5747212
-0.5994746 -0.1037553 -0.09983251 -0.719434 -0.6912386 -0.33456883 0.036737923 -0.23327227
-0.8766446 -0.07730219 -0.05660575 -0.10851035 -0.23913857 -0.5895202 -0.044109873 -0.07427685
-0.14483725 -0.027767979 -0.480551 -0.63322085 -0.17950505 0.052447565 -0.041896272 -0.060302004
-0.5692149 -0.12802313 -0.06405426 -0.0670331 -0.10341564 0.3553032 -0.6507801 -0.4124785
-0.5060755 -0.022868419 -0.17173341 -0.41602948 -0.02303203 -0.084563226 -0.02018082 -0.43196893
-0.2214309 -0.46095195 -0.04555136 -0.32402262 -0.46408898 0.10446686 -0.32888106 0.06891076
-0.059821848 -0.2283429 -0.8642882 -0.08380241 -0.5169395 0.06121014 0.27155972 -0.6642135
-0.1676966 -0.07780929 -0.60842514 -0.0641907 -0.22333118 -0.6068457 -0.19803448 -0.5338313
-0.36367524 0.12911575 -0.3307478 -0.09263215 -0.47586456 0.0013458617 -0.03641701 -0.07789924
-0.050187033 -0.020594064 -0.12833214 -0.35649043 -0.31993005 -0.19568275 -0.5320033 -0.70763403
-0.81792986 -0.050679184 -0.2622208 0.013222078 -0.50879174 -0.103061005 -0.4494649 -0.33139494
-0.07824521 -0.59010845 -0.30265617 -0.10918804 -0.10751262 0.42716292 -0.2769539 -0.786881
-0.03596595 -0.15768105 -0.019408194 -0.45652467 -0.32411376 -0.70372367 -0.10231388 -0.61972725
0.0939085 -0.333613 -0.43589148 -0.31144688 -0.112932265 -0.051985256 -0.098789364 0.29903257
-0.14444533 0.15249921 -0.38764837 -0.13862903 -0.09758265 -0.17656805 -0.017884847 -0.25559616
-0.31866342 -0.013012179 -0.05599308 -0.40813413 -0.29204845 -0.64394313 -0.31188384 -0.24709816
00000000: 31fe f4bb d427 98be 99d8 90be b3fb 2dbf
00000010: 1631 85bd d3d1 b53c 4abc 8dbd 6889 37bd
00000020: c5bd 7ebf 06b0 29bd 2caa 19bd 3b8b cdbe
00000030: 2335 15bd 89e6 adbe bf5e 363d 5a73 23bf
00000040: c472 c7bd 8ee4 3dbe 0219 b13b 00df 45bd
00000050: b942 abbd 402e 87bd c7f3 18bf 5fb9 ffbe
00000060: a06f d93b 7ab6 30bb 71ff 3dbe 0fc6 82bf
00000070: 1ba5 85be 3686 38bf 2c93 833c 8e16 0abf
00000080: 50cb e2bd 83fc a5be ff60 ad3d f433 ad3d
00000090: 47b8 99bd 73cb 9bbe 310b 97bd fed1 d6be
000000a0: a04c 8ebd 53f8 4f3e 25f2 943c d979 23bd
000000b0: 80f0 efbd 9a96 b1be 33ac 90bd 9b20 bdbd
000000c0: 5217 59be e690 2ebe 19ca 33bf ea6a 35bf
000000d0: 2445 abbe 006f c8bd 607d 0fbf f915 e9bd
000000e0: cdc4 9b3d cb25 3dbd 8914 fdbc 2256 7abd
000000f0: 2ce1 dcbe 6ed0 9b3e 7df3 1abe 0f9b 53be
00000100: a3ca 1ebf bc97 62bd 8337 89be 6c9c 3abe
00000110: 4107 84bd d9e2 8ebc 05cf 41bd b8ab 53bd
00000120: b490 6abd ccd4 93bd e553 0bbf f228 ddbc
00000130: b1a3 83bd b7a7 9c3d 5b62 86bd 3258 bdbe
00000140: c10e c6bc 5332 fbbe b2d4 d13e 45d6 8dbe
00000150: f8df 74bd 4950 84bf 4b35 ccbd 36d9 d7bd
00000160: 2cbe bbbe 095c 8dbd 674f 19be 1069 c8be
00000170: 8a2b 64be 1288 06be 8437 3abf 1ad6 b8be
00000180: ddd3 dbbe 8a3f 4abf 4000 95bd 6b7c 1abe
00000190: 957e d7bd e6fa a7be 9fa0 49bf e2c7 3bbe
000001a0: 1145 bdbe d578 14bf 121f a7be 909a f4bd
000001b0: b199 b23c fa82 e6be fde2 97bd 8d1f 70bd
000001c0: 20dd d5be 3a85 acbd 169c 96ba 68e2 b3be
000001d0: 803b a3bc 98e6 b53d a475 d5bb 067a 51bd
000001e0: 30a3 7abf cfab a9bd 1893 f5bd 5cfa 17bf
000001f0: c099 4fbf f504 8cbd 48f0 4abf ee20 13bf
00000200: 2b77 19bf a97d d4bd fd74 ccbd d42c 38bf
00000210: 03f5 30bf 9b4c abbe 817a 163d edde 6ebe
00000220: c86b 60bf 9c50 9ebd 6edb 67bd ad3a debd
00000230: bee0 74be ccea 16bf 8eac 34bd 761e 98bd
00000240: 3750 14be ac79 e3bc c80a f6be c31a 22bf
00000250: 2cd0 37be 42d3 563d 6d9b 2bbd 3cff 76bd
00000260: 11b8 11bf 7f18 03be e12e 83bd a648 89bd
00000270: 94cb d3bd 4dea b53e 8699 26bf 6230 d3be
00000280: 2a8e 01bf 8d56 bbbc e2da 2fbe d101 d5be
00000290: abad bcbc 7c2f adbd 3f52 a5bc 082b ddbe
000002a0: c8be 62be e501 ecbe 1094 3abd 4be6 a5be
000002b0: 129d edbe b9f2 d53d 1963 a8be 1621 8d3d
000002c0: c107 75bd b9d2 69be fe41 5dbf 99a0 abbd
000002d0: 2656 04bf 7cb7 7a3d e009 8b3e e509 2abf
000002e0: a8b8 2bbe 7a5a 9fbd c0c1 1bbf 6a76 83bd
000002f0: eeb0 64be 3d5a 1bbf 8dc9 4abe 2ba9 08bf
00000300: a433 babe eb36 043e c757 a9be edb5 bdbd
00000310: 85a4 f3be a067 b03a 012a 15bd a389 9fbd
00000320: eb90 4dbd e2b4 a8bc 8069 03be ea85 b6be
00000330: dfcd a3be 0f61 48be 5e31 08bf 8127 35bf
00000340: da63 51bf fa94 4fbd ce41 86be 6aa1 583c
00000350: 2d40 02bf a611 d3bd 4320 e6be 99ac a9be
00000360: 063f a0bd 5911 17bf c0f5 9abe fb9d dfbd
00000370: 942f dcbd 19b5 da3e e7cc 8dbe 0971 49bf
00000380: 0851 13bd 2477 21be effd 9ebc 9abd e9be
00000390: 3df2 a5be 3c27 34bf f189 d1bd 72a6 1ebf
000003a0: 1a53 c03d 53cf aabe 2b2d dfbe f775 9fbe
000003b0: 0849 e7bd 7eee 54bd 1452 cabd cc1a 993e
000003c0: 7ae9 13be c128 1c3e d979 c6be c5f4 0dbe
000003d0: 6ad9 c7bd 41ce 34be 3e83 92bc 80dd 82be
000003e0: da27 a3be 0931 55bc 0059 65bd f5f6 d0be
000003f0: 6087 95be 75d9 24bf 3daf 9fbe 4d07 7dbe

fc3.weight f4 [2, 300]
-0.0639953 -0.56238145 0.34398645 -0.6229987 -0.031972874 -0.3344148 -0.07356637 0.015205368
-0.37640786 -0.002435903 -0.48757026 -0.42660636 0.0018942244 0.58279824 -0.77502733 0.32372487
0.00312982 0.4786688 -0.019486062 -0.014651597 -0.009216722 -0.46980223 0.4847619 0.84365654
-0.000777081 0.05944641 -0.44803745 0.6189005 -1.032185 -0.80897427 0.09740529 -0.014967533
-0.03862839 -0.26654834 -0.058170315 0.44844127 -0.19903973 -0.4427426 0.01677991 -0.6101306
0.0024978893 -0.026823813 0.0014818948 -0.006187052 0.0030909646 -0.008828154 -0.00895351 -0.013158197
0.1314565 0.1752059 1.0719264 0.8036695 0.51570934 -0.09863582 -0.49653718 0.1776722
0.054019544 0.014304461 0.009411931 0.0016618731 0.24032523 0.032678578 0.02522449 -0.47784618
0.6203205 0.17493509 0.046678334 -0.38138938 -0.023675963 -0.0051618014 0.00094748253 -0.002989989
-0.30163577 -0.42718247 0.123646945 0.015197703 -0.0119913835 0.5317067 0.0019103826 -0.06939199
-0.0065007606 0.067302346 -0.5218199 0.5011348 -0.2242169 0.3657517 0.018133987 0.0066421796
0.09771947 0.007875003 -0.06543123 -0.6955547 -0.47395486 0.033250544 0.23727198 -0.5116187
0.43359306 0.5488225 0.04919403 0.15800668 -0.02206905 -0.2630443 -0.7047511 0.10136277
0.1842304 0.5709215 0.08272599 -0.044465616 0.025157323 0.24426877 -0.0017019389 0.0391699
-0.89916223 0.08127591 -0.55897236 0.4689212 -0.019552829 -0.09998958 0.010961352 -0.012441783
-0.41003376 0.0066947667 -0.030711066 -0.280634 0.12900893 -0.03114025 0.15037847 -0.35187617
1.2955267 -0.013192467 -0.24756089 -0.22859888 0.38536042 0.047067747 -0.10464562 0.37665606
-0.1662723 -0.0036922158 -0.005450877 -0.00747922 -0.09929481 -0.3096017 -0.0005112189 -0.23746958
0.19592373 0.002190888 1.0039216 0.19550975 -0.39931306 0.12072805 0.0051655984 0.0032380577
0.0068955375 -0.13600062 -0.01046648 -0.0012921344 -0.035121 -0.4358939 0.8985131 0.5224948
-0.62035775 -0.0063140662 -0.038703285 -0.6464062 -0.0018302123 0.06540226 -0.007475354 0.6049931
-0.50757575 -0.36143526 0.0053048437 0.024768725 -1.5260352 -0.5937031 -0.033049308 0.15250605
-0.011489682 0.36600164 -0.42526084 -0.014266434 0.020399075 0.27981308 -0.07634129 -0.28710863
0.09022751 -0.117706954 -0.030298455 -0.46778324 0.49584156 0.01839749 -0.14861862 0.18046887
0.059497863 -1.5512316 0.5512698 -0.007324259 -0.23701121 0.037970416 -0.010305121 0.06568569
0.013794114 0.025701258 -0.05524583 0.10580585 -0.100378774 0.48592746 -0.10799908 0.25977853
0.49609658 -0.028706498 -0.53721714 -0.84628415 0.30729452 0.3989526 -0.19047295 0.18350928
0.040212624 0.39163464 -0.3635814 0.0065122163 -0.0028600362 -0.17198597 -0.79416984 0.19691142
-0.021397782 0.10528661 0.4417514 -0.08775604 -0.38348794 0.8842419 -0.025408642 0.40385458
-0.31419283 0.17244297 1.023334 0.600251 0.0185861 -0.006122841 0.0052706 -0.41087928
-0.008740434 0.044870712 0.13006653 0.10990283 -0.031125996 -0.06744036 -0.28826866 -0.69255936
-1.0260798 0.0043717553 -0.0033954082 -0.36892524 0.17553535 0.257073 -0.05828584 0.035058398
00000000: f80f 83bd 3bf8 0fbf fe1e b03e d87c 1fbf
00000010: fdf5 02bd 6b38 abbe f7a9 96bd f01f 793c
00000020: 88b8 c0be aca3 1fbb cfa2 f9be 266c dabe
00000030: a047 f83a 4432 153f 3168 46bf 44bf a53e
00000040: ab1d 4d3b 1414 f53e 3ca1 9fbc 400d 70bc
00000050: bc01 17bc eb89 f0be b632 f83e e0f9 573f
00000060: 06b5 4bba 147e 733d 2a65 e5be 4370 1e3f
00000070: a31e 84bf f018 4fbf 6d7c c73d 623a 75bc
00000080: cd38 1ebd 0679 88be ff43 6ebd 189a e53e
00000090: 12d1 4bbe 28af e2be 0676 893c 8531 1cbf
000000a0: a1b3 233b 9dbd dbbc 233c c23a c1bc cabb
000000b0: c891 4a3b f6a3 10bc beb1 12bc 7a95 57bc
000000c0: 889c 063e 2d69 333e e234 893f 49bd 4d3f
000000d0: 8705 043f 9401 cabd 1f3a febe b4ef 353e
000000e0: 9943 5d3d 425d 6a3c 8034 1a3c 35d3 d93a
000000f0: d117 763e f9d9 053d 97a3 ce3c 41a8 f4be
00000100: 53cd 1e3f 2f22 333e c831 3f3d 7845 c3be
00000110: 18f4 c1bc 5424 a9bb 7a60 783a b1f3 43bb
00000120: 0170 9abe a9b7 dabe 9c3a fd3d c9ff 783c
00000130: 8277 44bc ee1d 083f ce65 fa3a 631d 8ebd
00000140: 5504 d5bb d0d5 893d fd95 05bf 5f4a 003f
00000150: 1d99 65be cf43 bb3e ba8d 943c a4a6 d93b
00000160: 2521 c83d 2806 013c cf00 86bd df0f 32bf
00000170: 36aa f2be b931 083d 6df7 723e 71f9 02bf
00000180: e9ff dd3e a27f 0c3f ae7f 493d 81cc 213e
00000190: 27ca b4bc bead 86be 916a 34bf 4997 cf3d
000001a0: e5a6 3c3e e927 123f 3e6c a93d 9421 36bd
000001b0: bb16 ce3c 9821 7a3e 9813 dfba 9e70 203d
000001c0: 7f2f 66bf fc73 a63d d018 0fbf 7116 f03e
000001d0: 412d a0bc 56c7 ccbd 3e97 333c 9fd8 4bbc
000001e0: f2ef d1be c65f db3b c695 fbbc 42af 8fbe
000001f0: eb1a 043e d619 ffbc d0fc 193e 1d29 b4be
00000200: d2d3 a53f 3825 58bc 9a80 7dbe d315 6abe
00000210: f64d c53e 1cca 403d 7150 d6bd 10d9 c03e
00000220: 4943 2abe 1af9 71bb 459d b2bb 3f14 f5bb
00000230: 145b cbbd 1d84 9ebe 5203 06ba 3a2b 73be
00000240: 3ba0 483e 0095 0f3b 8180 803f b533 483e
00000250: c372 ccbe 4540 f73d 2e44 a93b 9835 543b
00000260: f6f3 e13b bf43 0bbe 997b 2bbc d65c a9ba
00000270: 0adb 0fbd 7c2d dfbe f404 663f 38c2 053f
00000280: c4cf 1ebf 3ae6 cebb 5687 1ebd e07a 25bf
00000290: bce3 efba 9ff1 853d d0f3 f4bb d4e0 1a3f
000002a0: 7cf0 01bf 0b0e b9be 41d4 ad3b c8e7 ca3c
000002b0: 1f55 c3bf edfc 17bf b65e 07bd 8c2a 1c3e
000002c0: 383f 3cbc 9164 bb3e cabb d9be c3bd 69bc
000002d0: f61b a73c a943 8f3e d258 9cbd e7ff 92be
000002e0: 33c9 b83d 5810 f1bd 7734 f8bc 4981 efbe
000002f0: f2de fd3e 55b6 963c 7b2f 18be d5cc 383e
00000300: 08b4 733d c28e c6bf 0520 0d3f 5600 f0bb
00000310: 11b3 72be de86 1b3d cfd6 28bc 3886 863d
00000320: b500 623c 728b d23c 7449 62bd bdb0 d83d
00000330: 6393 cdbd 7ccb f83e 9f2e ddbd b101 853e
00000340: 5f00 fe3e e429 ebbc 1087 09bf 14a6 58bf
00000350: b555 9d3e 8443 cc3e 570b 43be dbe9 3b3e
00000360: feb5 243d 5684 c83e 5727 babe 6e64 d53b
00000370: 726f 3bbb 171d 30be b74e 4bbf 26a3 493e
00000380: 674a afbc 82a0 d73d 3d2d e23e 70b9 b3bd
00000390: 8858 c4be ad5d 623f c925 d0bc 07c6 ce3e
000003a0: e2dd a0be e494 303e 9cfc 823f 0daa 193f
000003b0: e041 983c 1da2 c8bb ffb4 ac3b c55e d2be
000003c0: 0a34 0fbc 5aca 373d 2930 053e bc14 e13d
000003d0: f2fb febc 2c1e 8abd f397 93be 924b 31bf
000003e0: 9556 83bf f140 8f3b 7f85 5ebb c5e3 bcbe
000003f0: 8abf 333e 129f 833e 22bd 6ebd 6599 0f3d

fc3.bias f4 [2]
0.3945128 -0.5867778
00000000: 95fd c93e 1237 16bf
