DDPG/saved models/critic_params.pth (torch_old, 525802 bytes, 5 tensors)

fcs1.weight f4 [400, 24]
000000 3a 24 8d 3e a9 99 1d bc e9 d5 31 bd 65 7d 22 3d
       0.275667 -0.009619155 -0.04341689 0.039670367
000010 a6 a1 5f 3d 93 5d e8 be 09 b9 16 bd 9f 7f 75 3d
       0.05459752 -0.4538389 -0.036797557 0.059936162
000020 aa a6 92 3e 03 2f 82 3d 3d cc 18 bd 31 11 80 bb
       0.2864278 0.06356623 -0.03730415 -0.0039082994
000030 15 61 c4 3d e4 31 50 be c9 1f c2 bc ce 22 47 3d
       0.095888294 -0.20331532 -0.023696797 0.048617177
000040 5f 27 ce 3e 32 29 be 3d 9a 63 9c bc d8 27 d9 3d
       0.40264413 0.09285201 -0.019090462 0.10603303
000050 b8 b3 93 bd fc ed 13 be bb b1 dd 3c 9c 4a b2 3d
       -0.07212013 -0.14446253 0.027062288 0.08705637
000060 98 9c e2 3e 12 18 9d 3e 79 4e bf bc 84 bb 8d bd
       0.44260097 0.30682427 -0.023352848 -0.069205314
000070 1a c4 e4 be 68 53 49 bb d4 df 23 bc 83 0b ae bc
       -0.44680864 -0.003071988 -0.010002095 -0.021245724
000080 87 1f 0c 3f ac 8c f9 3e 75 b4 c2 bd 74 22 09 be
       0.54735607 0.48740137 -0.09507076 -0.13392049
000090 94 1e 5f 3b 8f c9 da be 7c 03 e7 bc 79 d7 39 be
       0.0034045326 -0.42731902 -0.028199904 -0.18148603
0000a0 ed 9d 79 3f 12 27 15 3f 4e 9b c7 3c b3 a4 bc 3e
       0.975066 0.5826274 0.024366047 0.36844406
0000b0 45 a8 b2 3e 89 a2 8d bf 63 49 93 bb 49 08 a4 3e
       0.34894004 -1.1065227 -0.0044948324 0.3203757
0000c0 e0 47 c7 3e d8 bd 4c bf 28 46 d1 bd 6f ce e6 3e
       0.38922024 -0.7997718 -0.10218459 0.4507937
0000d0 d9 5e d1 be f9 34 ee bf d0 e1 2c bd 7f 66 d1 3e
       -0.40892676 -1.8609916 -0.04220754 0.4089851
0000e0 fb 1c c0 3f 01 8b 59 bf 6c fd 5d bd c6 e7 08 3e
       1.5008844 -0.8497773 -0.05419676 0.13369665
0000f0 ec 68 4f 3e 45 c5 f4 bf 06 e8 c1 bd c7 f7 64 3d
       0.20254868 -1.9122702 -0.09468083 0.05590036
000100 12 38 8b 3f 45 1f eb be a5 52 3c ba bb d4 06 3e
       1.0876486 -0.45922294 -0.0007183946 0.13167088
000110 a0 04 5c bd 7f 4b 1f 3f 3f f6 9d 3b ee 24 ac 3d
       -0.05371535 0.6222457 0.0048206146 0.08405481
000120 cc 5d cd 3d 1e 1b 20 bc e4 d8 8a bc 2d c5 5e bc
       0.10027656 -0.00977209 -0.016949125 -0.013596815
000130 2d 0a 25 3e 3e d1 5d be 93 49 3e bc 0a cb ed bc
       0.16117163 -0.21661851 -0.011614221 -0.02902748
000140 a6 f1 58 3e 4e aa c2 3d 2b da 6a bd d9 d5 2e bd
       0.21185932 0.09505139 -0.057336967 -0.04268441
000150 46 e8 04 3d b2 8b 67 be 39 76 f7 3b 5c c0 a6 bc
       0.032448076 -0.22611883 0.007551935 -0.020355396
000160 60 15 bb 3e 08 d2 a5 3e 23 f4 e8 bb 29 07 2e 3d
       0.36539745 0.32386804 -0.0071091815 0.042487297
000170 54 9f 13 be 02 8a 77 be a2 7a 16 bd 98 3d f2 3d
       -0.14416248 -0.2417374 -0.036738046 0.11828154
000180 1e a0 e2 bd c0 32 4a be ec c6 4a bc 6c c2 df bd
       -0.11065696 -0.19745922 -0.012376528 -0.10925755
000190 5a b6 df bd 70 07 47 3e d0 42 73 bd eb b3 f6 bd
       -0.10923453 0.19436431 -0.05938989 -0.120460354
0001a0 02 c2 f4 bc e4 ea 8d be d5 c5 4f bd 53 a4 7e 3d
       -0.029877666 -0.2771827 -0.050725777 0.06216843
0001b0 60 c6 28 3e 38 f6 c6 be b0 72 bc 3c b0 16 35 3d
       0.16481924 -0.38859725 0.023003906 0.04421109
0001c0 48 58 b7 3d 11 a1 1f be 48 85 31 bd 2f be a9 bd
       0.08952385 -0.15588786 -0.043339998 -0.08288228
0001d0 c1 d3 be 3e ba 01 03 c0 d1 28 8d bd f9 a1 c6 bd
       0.3727093 -2.0469804 -0.06892551 -0.096988626
0001e0 df 3e 16 3e f3 12 d0 3e 2d 13 a2 3c df 99 56 be
       0.14672421 0.40639457 0.019784534 -0.20957135
0001f0 11 a1 2a bd 0c e8 a2 bd b6 7e 81 3c 9c 8a 55 be
       -0.04165751 -0.07954416 0.01580749 -0.20853657
000200 b1 41 3c 3e 17 67 3d 3e 16 e2 74 3c 14 ee b6 3c
       0.18384434 0.18496357 0.014946481 0.022330321
000210 30 82 a3 bd 3f 1d b0 3e 2b 4f 71 3d 17 0b 1a bd
       -0.07983816 0.34397313 0.05891339 -0.037608232
000220 50 19 b0 3e 9c 80 28 3e 22 13 6b bc 02 a4 c3 bb
       0.34394312 0.1645531 -0.014347823 -0.005970479
000230 ee 06 b8 be 03 0f 1d 3f 68 c4 4d bc 92 c8 00 3d
       -0.35942787 0.6135103 -0.012559034 0.03144128
000240 34 13 7e 3d 10 5a 73 3e 01 8e f7 bc 4a d0 06 3f
       0.062030032 0.23764825 -0.03021908 0.52661574
000250 c3 ff 6d 3e 2a 4d 8e bf e9 05 12 bd a6 cb 05 3f
       0.23242097 -1.1117299 -0.035650168 0.5226387
000260 b2 13 1f 3f 83 c5 20 3f ad 17 74 bc d5 c0 7c 3e
       0.6213943 0.6280138 -0.014898223 0.24682935
000270 20 c2 c7 be b3 d7 84 bf 86 e0 d9 bc be 8f 7e 3e
       -0.39015293 -1.0378326 -0.026596319 0.24859521
000280 bb 12 8c 3f 77 dd c8 3e 86 d4 32 bd 8a bb f1 be
       1.0943216 0.39231464 -0.04365971 -0.47213393
000290 7d 18 2a 3e 5f b3 64 be 58 b7 36 bd 41 21 d7 be
       0.16610904 -0.2233405 -0.044608444 -0.42017558
0002a0 29 2b a7 3b 39 14 ab 3d ad 92 35 3b 33 8f 4d bc
       0.0051015806 0.083534665 0.0027705834 -0.012546348
0002b0 14 03 6d bc 54 97 50 bd 2f c9 59 bc b7 ba 20 bc
       -0.014466066 -0.050925568 -0.013292595 -0.009810141
0002c0 e2 a7 9d 3d 23 48 e8 3c 1c 66 49 bd af a6 d6 3c
       0.07698037 0.02835471 -0.049169645 0.026202528
0002d0 9e 61 ad bc 52 13 61 bc 89 64 0e 3d 5e 3c 8e bc
       -0.021164712 -0.0137375165 0.034763847 -0.01736277
0002e0 13 b5 df 3d ed 78 02 3c 63 37 01 3d 6a 43 bb bc
       0.10923209 0.007963401 0.03154696 -0.022859294
0002f0 7a 40 31 3d 88 df a4 3b c0 6a 0f bd 0c e5 d0 3c
       0.04327438 0.00503153 -0.035013914 0.025499843
000300 7a 41 e9 3b 29 6e 33 bd e9 5b 87 b9 30 8d 81 bd
       0.007118401 -0.04380623 -0.00025817685 -0.063257575
000310 ce 8d 80 3e 2f 6a 03 bf 05 0d 97 3b c9 87 a1 bd
       0.25108188 -0.513339 0.0046097063 -0.07887227
000320 32 6e d9 bc ec d1 0c 3e 06 89 57 bc 99 1b dd bc
       -0.026541803 0.13751954 -0.0131552275 -0.026990699
000330 d1 8c 1d 3e 50 0a 22 3d 99 a9 49 3c cf f6 45 3d
       0.15385748 0.039560616 0.012308502 0.04833108
000340 25 6d c8 3c af e2 de 3e c9 a8 10 bd 8b 7c 18 3d
       0.024466107 0.4353232 -0.035317216 0.03722815
000350 2b 53 c7 be 8c 6d 1d 3f e0 6d 1e 3d 2e e6 4b 3d
       -0.3893064 0.6149528 0.038679004 0.049780063
000360 db bd a0 3d 34 ef 06 3f 75 79 da bd 76 80 62 be
       0.07848712 0.52708745 -0.10667697 -0.22119316
000370 9b f2 63 be 9b 9e 81 bf 14 a7 0b bd 04 70 45 be
       -0.22260515 -1.0126528 -0.034094885 -0.19281012
000380 0d a8 b9 3e 24 e9 ff 3e ee fc e5 bc a8 4a 42 3e
       0.36261025 0.4998256 -0.028074708 0.18973792
000390 9d b5 63 3b ab ae 6f be f5 77 59 bd be da 02 3e
       0.00347457 -0.23406474 -0.053092916 0.12778756
0003a0 f3 10 21 3f c9 83 31 3f 40 4b c9 bc f0 4e df bd
       0.6291649 0.69341713 -0.024572015 -0.10903728
0003b0 9c 97 0c 3e 2a c7 40 3f 21 4a 0f 3d e0 70 12 be
       0.1372971 0.753039 0.034982804 -0.14300871
0003c0 f8 98 a5 3c c4 c5 28 3e eb db d6 3b 3e 07 2b bc
       0.020214543 0.16481692 0.006556978 -0.010438738
0003d0 36 a8 48 bd aa 42 18 bf 87 f8 b6 bb 1a ab 05 3d
       -0.048988543 -0.5947672 -0.005583826 0.03263388
0003e0 16 22 00 3e 26 db 06 3e 11 8a ac 3b 4f c1 07 3e
       0.12513003 0.13169536 0.0052654822 0.13257335
0003f0 26 85 5d be f9 87 65 bf bb 0e 40 bd 7b 54 ec 3d
       -0.21632823 -0.896606 -0.046889048 0.11539551

fcs1.bias f4 [400]
000000 7f 67 2f 3e f6 43 cc be d2 14 07 bf ba 54 b4 be
       0.17129324 -0.398956 -0.52766144 -0.3522089
000010 83 37 01 3e 36 54 97 3d 86 66 38 bf e9 26 31 be
       0.12618832 0.07389109 -0.7203144 -0.173
000020 c1 6a 95 bd 82 af 71 bf c4 a6 c3 bf 9c 60 65 bf
       -0.07295752 -0.9440843 -1.5285268 -0.8960054
000030 5e 43 86 3f e0 b7 f1 be 71 1f 0a bf 04 78 3b be
       1.0489309 -0.47210598 -0.53954226 -0.18307501
000040 d7 3b 8e 3e b2 5f f1 be 65 d2 74 bf 89 3a 7d 3e
       0.2778003 -0.47143322 -0.95633537 0.2472936
000050 9d cd aa 3e 8a ba 3b 3d da 59 db 3e a4 cd 4a be
       0.33359995 0.045832194 0.4284199 -0.19805008
000060 bf f3 ff 3e 52 92 86 bf 6f 21 7f bd e7 50 b7 3d
       0.4999065 -1.0513403 -0.062287744 0.08950978
000070 b3 3a 69 3e a1 b8 66 bf 32 4e ac be 9c 39 a5 3e
       0.22776298 -0.9012547 -0.33653408 0.32270515
000080 d0 c3 77 3f 0f b2 6c 3f 9f c0 3e bf 8d 7b f7 be
       0.9678316 0.92459196 -0.74512666 -0.4833645
000090 ce d6 8a 3e 15 d1 6f bf 4a 31 5e bf c8 be 1f bf
       0.27117008 -0.9367841 -0.8679396 -0.62400484
0000a0 ad a7 0a bf 96 e1 53 bf e7 c7 89 bf ac 3b 12 bd
       -0.541621 -0.8276609 -1.076413 -0.03570144
0000b0 40 36 15 bf 45 2c 74 3d 5b 1f 4f 3e 72 3d 93 3e
       -0.58285904 0.05961253 0.20226805 0.28757817
0000c0 ae 60 d1 3f e9 2b 60 bf b2 62 27 3f 01 d9 28 bf
       1.6357629 -0.87567 0.6538497 -0.6595612
0000d0 e2 3f 25 bf 2b ae 89 3f 8a 83 2a bf 13 57 8d 3e
       -0.645506 1.0756277 -0.6660696 0.27605495
0000e0 0c 18 65 bf 8f b8 1a be 4d ad 53 3e ee 01 87 3f
       -0.8948982 -0.15109466 0.20671578 1.0547464
0000f0 92 e8 6c 3e 55 21 33 bf a4 ee 9b bf 0b 0b fd bd
       0.23135594 -0.69972736 -1.2182202 -0.12355622
000100 41 1e 8b be 29 ee db be 1a 33 6a bf a5 b7 0e 3f
       -0.2717152 -0.4295514 -0.91484225 0.5574897
000110 1b 9c 16 3f 2a a5 52 3e ed dd 06 bf 9d 81 2c bf
       0.5883195 0.20570818 -0.5268238 -0.67385274
000120 18 eb 26 bf b8 57 80 bf 8a ff 00 bf 16 d7 b8 bc
       -0.65202475 -1.002677 -0.5038992 -0.022563498
000130 e2 03 cb 3e ac b6 8b bf eb c6 16 bf 94 6b 12 3f
       0.396514 -1.0915122 -0.58897275 0.571954
000140 2e 45 a0 3e d0 0e 57 bf 46 77 3a bf d2 d1 a1 bf
       0.3130278 -0.8400698 -0.72838247 -1.2642157
000150 51 e5 1f bf b4 1a da be 9d f8 b3 be 9b 60 52 bf
       -0.62459284 -0.42598498 -0.35150614 -0.8217866
000160 90 c4 1f 3f a0 40 12 bf 90 ec 77 bf 70 90 43 bf
       0.62409306 -0.5712986 -0.9684534 -0.7639227
000170 92 f0 41 bf 98 db 71 be 9c f6 fe be 10 34 44 bf
       -0.75757706 -0.23618925 -0.49797523 -0.7664194
000180 42 2f 3d bf 00 d0 3c bf d9 b0 30 bf e7 3e 7c 3f
       -0.73900235 -0.7375488 -0.6901985 0.9853348
000190 98 55 77 3f e5 22 85 bf d7 9e e1 be d8 5e 0f be
       0.9661498 -1.0401274 -0.44066498 -0.14001024
0001a0 b2 5e 30 3e 02 18 6f 3f af 9d 4e 3e cc 1b 07 bf
       0.17223623 0.9339601 0.20177339 -0.5277679
0001b0 b3 35 5e bf 51 67 3b bf 93 e0 7c be bc b8 fd 3d
       -0.8680069 -0.73204523 -0.24695043 0.12388751
0001c0 9c a1 23 be 5c 71 22 bf 04 80 90 3e f6 9d a8 be
       -0.15979618 -0.6345422 0.28222668 -0.32933015
0001d0 c1 ea 3b bf 32 ad 0b be 16 38 60 bf fe 5f 51 3f
       -0.7340508 -0.13640288 -0.8758558 0.817871
0001e0 a8 1d c0 3e 8d 63 aa be de d3 2d bf a7 cd a5 bf
       0.37522626 -0.33279076 -0.6790141 -1.2953385
0001f0 6b 4f bd be 6e 81 bf 3e 20 63 2d bf 48 c7 29 bf
       -0.36974654 0.37403435 -0.6772938 -0.66319704
000200 f5 b5 25 bf f4 8e 0e 3f 1d d4 22 3e 58 8c 06 bf
       -0.6473077 0.5568688 0.15901227 -0.525579
000210 8c 1e 4b be c7 fa 98 3e 05 99 87 3f a7 ac b6 3e
       -0.19835871 0.29878828 1.0593573 0.35678598
000220 8b 88 b7 3d 50 1e 62 bf 55 a8 e0 bf 81 e9 13 bf
       0.089615904 -0.88327503 -1.7551371 -0.57778174
000230 ba 0c 78 bd c4 a6 08 3d d2 5e e7 bf 01 09 3f bf
       -0.060559012 0.033362165 -1.8075812 -0.74623114
000240 1d 5a a7 be 4c 85 b3 3d 4b c7 46 bf 81 3e 99 bf
       -0.32685938 0.08765659 -0.77647847 -1.19722
000250 3d f9 41 be 6b c1 dc be b5 d5 88 3e 26 40 30 bf
       -0.18942733 -0.43116316 0.26725546 -0.6884788
000260 80 5d 22 bf 2e 8b df 3d 9b ee a7 3e c2 fa 76 bf
       -0.6342392 0.10915218 0.3279923 -0.96476376
000270 3e 65 58 3e f9 f2 5c 3f ad 28 20 bf f4 e4 39 3e
       0.21132371 0.86308247 -0.62562066 0.18153745
000280 b9 f5 25 3f ba 4a 2d bf 27 12 d8 3e b3 13 30 be
       0.6482807 -0.6769215 0.4220135 -0.17195015
000290 66 d5 18 bf 38 6c 07 bf d5 07 89 bf 84 a1 d9 be
       -0.5970062 -0.52899504 -1.0705515 -0.4250604
0002a0 36 42 cc 3e 56 9d 00 bf 60 2a 32 bf a0 b9 5a bf
       0.39894265 -0.50240076 -0.6959591 -0.8543949
0002b0 f3 0b 39 bf 02 33 79 ba d2 da fe be 1e 9c 8b 3d
       -0.7228386 -0.0009506197 -0.49776322 0.06816886
0002c0 10 2f 6f bf a3 08 30 bf 6c 98 a0 bf cf 33 23 be
       -0.93431187 -0.6876318 -1.2546515 -0.15937732
0002d0 41 64 9f bd 91 5a fb 3d b6 21 5e be e1 0c c4 bf
       -0.07782794 0.122731335 -0.21692547 -1.531643
0002e0 8a ac ad be a2 98 56 bf d7 2a 37 bf 79 bc 01 3f
       -0.339207 -0.8382665 -0.71549743 0.5067821
0002f0 0e 86 91 bf fa 1b a3 3e c0 54 56 bd f7 6f a3 bd
       -1.1369035 0.31857282 -0.052326918 -0.0798034
000300 ce 18 32 bf 32 18 29 be 23 d4 af 3f 10 58 a7 3e
       -0.695691 -0.16513136 1.3736614 0.32684374
000310 ae 1e 6c bd 3e 60 95 bf ee 19 9b be 80 93 b6 bf
       -0.057646446 -1.1669996 -0.3029322 -1.4263763
000320 71 a6 52 bf c6 1d d0 3e 8e 8c 88 bf ae 88 93 bf
       -0.8228522 0.40647715 -1.0667894 -1.1526086
000330 f7 9f 8c bf d5 36 98 bf 44 0a e5 bd 0c cc 9b 3f
       -1.0986317 -1.1891733 -0.11183599 1.2171645
000340 03 52 8b 3f ca 60 0a bf c5 0b cd bd 42 b7 70 3f
       1.0884403 -0.5405394 -0.100120105 0.9402963
000350 e2 e3 62 bf 4b 25 8d bf 77 4b c8 be 28 fc 9e bf
       -0.8862897 -1.1027006 -0.39120075 -1.2420702
000360 05 50 51 bf 85 da 5c bf 09 c5 47 bf df 85 69 3f
       -0.81762725 -0.86270934 -0.78035027 0.91219896
000370 76 fa 83 bf 23 0e 37 bf ae dd 37 3f 7e 31 cc bd
       -1.031081 -0.71505946 0.7182263 -0.099703774
000380 07 f0 39 bd 13 ed ac bf ed c1 09 bf 8d 89 62 3f
       -0.045394924 -1.3509849 -0.5381153 0.88491136
000390 05 eb 19 bf 12 15 a0 bf 8d 39 7b be 65 f8 4a 3f
       -0.60124236 -1.250643 -0.24533673 0.7928527
0003a0 0a 0e 1d 3f f5 8e 7a bf ca b8 52 bf d7 10 25 bf
       0.61349547 -0.97874385 -0.82313216 -0.6447882
0003b0 30 c5 a4 be 28 a4 7b 3f 3d 58 96 3d 42 84 82 be
       -0.32181692 0.9829736 0.07341049 -0.2549153
0003c0 97 48 1e bf 1a a2 16 be 9c 73 c0 be b2 b5 58 bf
       -0.61829513 -0.14710274 -0.37588203 -0.84652245
0003d0 ad 6d c7 3e 84 1d 5a bf 13 10 5b be 94 af 91 bd
       0.38950863 -0.8520129 -0.2139285 -0.07113567
0003e0 4a c2 95 bf a0 94 8a bf 80 87 2b be ba 23 89 bf
       -1.1699917 -1.0826607 -0.16750908 -1.0714028
0003f0 22 8b 76 be 92 f5 41 bf 7e 3b 79 bf 6a 19 2c bf
       -0.24076512 -0.75765336 -0.973564 -0.6722628

fc2.weight f4 [300, 402]
000000 d2 39 44 bd ea 48 2a bd d3 f2 37 bd 9f c2 06 bd
       -0.047906704 -0.041573443 -0.04490931 -0.03290045
000010 5c 1d 72 bd b4 38 04 bd 33 38 ca 3c 48 df 51 bd
       -0.05911003 -0.03228064 0.024685001 -0.05123833
000020 7f ef 4d bd cd ef 22 bd 6c e6 87 bb a8 be fd bc
       -0.05027723 -0.039779473 -0.0041473415 -0.030974701
000030 c9 c5 0a bc 6c cf 4c bd b4 4d 1e 3d 60 46 0e 3d
       -0.008470007 -0.0500025 0.038648322 0.034735084
000040 34 ea 23 3d 34 e2 a3 bc d8 fd 38 bd 9a 2e 2a bd
       0.040018275 -0.020005323 -0.04516396 -0.04154835
000050 0a 11 51 3d b7 20 e0 3c 03 a2 38 b7 fb 35 3a bd
       0.05104164 0.02735935 -1.1004976e-05 -0.045461636
000060 ff cb db bc 80 c2 f2 bc c2 c9 3f bd aa 17 94 bc
       -0.026830671 -0.02963376 -0.04682327 -0.01807769
000070 de a7 10 3d 20 61 f6 3c d7 48 3e 3c e5 b3 f5 bc
       0.03531634 0.03007561 0.011614046 -0.029993007
000080 a9 14 5d bd 99 f8 2a bd 84 75 13 bd 3a 0b d3 3c
       -0.05397478 -0.041740987 -0.036000744 0.02576219
000090 cf 64 6f bd 50 f5 f6 3c 00 a1 19 bd 3d 6f 53 bc
       -0.058445748 0.030146271 -0.037507057 -0.012904939
0000a0 8f 18 f2 3c 93 14 fe 3c aa 80 fa 3c f5 4d 6f bd
       0.029552726 0.03101567 0.03057893 -0.058423955
0000b0 53 d0 fa 3c c3 ae d9 bb 18 56 82 bc 0d a6 30 bd
       0.030616915 -0.0066431477 -0.015910193 -0.04312711
0000c0 da ac 47 bd 3f 87 32 bd 92 b4 7d 3c 42 fe 3b bd
       -0.04874883 -0.043586012 0.015484946 -0.045896776
0000d0 13 d1 20 bd 20 57 05 bc 84 fc 18 3d e2 d4 40 bc
       -0.03926189 -0.008138448 0.037350193 -0.011769505
0000e0 ed 95 6d 3b 87 ce 0b 3d 01 af 01 3b 86 1a 9e bd
       0.0036252693 0.034132507 0.0019788148 -0.07719903
0000f0 db f0 0a bd af 0e a9 3c 17 f0 70 bd 3a d7 b3 bc
       -0.033921104 0.020636884 -0.058822718 -0.021953214
000100 67 45 dc bc ca 72 3f 3d ca 0b b9 bc 9b 7e 20 bd
       -0.026888562 0.04674033 -0.02258863 -0.03918324
000110 41 2a c2 bb 39 de db bc d9 47 e1 3b 78 2d 7f bd
       -0.005925447 -0.026839362 0.00687502 -0.06229922
000120 a7 35 9e bc d1 dd 35 3d 73 cc 0d bd 35 13 2f bc
       -0.019312693 0.044400994 -0.034618806 -0.010685732
000130 cb b2 7c bd 19 dc e5 bc fd 62 16 bc 0c fa 28 3c
       -0.061693948 -0.028059052 -0.009178874 0.010313522
000140 f4 76 1f bd 90 a3 64 3c 86 45 04 3d 0b 76 33 3a
       -0.038931802 0.013955012 0.032292865 0.0006845898
000150 49 e6 25 3d e8 2c 2b 3d f2 ae 16 3d de de 5c bd
       0.04050282 0.041790873 0.036787935 -0.05392348
000160 4f 66 4f 3c fc fa c7 bc 2d c7 0e bd 31 d5 35 bd
       0.01265867 -0.02441167 -0.034857918 -0.04439277
000170 3a 61 8d bb 89 a9 81 bd 5d 14 67 bd 75 71 09 bd
       -0.004314569 -0.063311644 -0.056415904 -0.033555467
000180 09 4f 85 bd 40 66 55 3b a7 d5 82 bc 7e 4c b6 3c
       -0.065092154 0.0032562166 -0.015971018 0.022253271
000190 96 2e 6d bd 80 38 85 bd 1c a0 31 3d bd f7 88 3c
       -0.057905756 -0.06504917 0.043365583 0.016719693
0001a0 02 80 c5 bc c0 4b 57 bc c8 bd 56 bd 1e 45 86 bd
       -0.02410889 -0.013140619 -0.052427083 -0.06556152
0001b0 a8 4f 7b bd b0 6c e4 3c 67 24 48 3d e5 fa bd bc
       -0.061355263 0.027883857 0.04886284 -0.023190925
0001c0 0e 38 ef 3c f5 01 11 bd f3 05 56 bd de 2e ac bb
       0.029201534 -0.035402257 -0.052251767 -0.0052546104
0001d0 76 2e 6f 3c 7d 1e 14 bc e1 08 2c bd 91 81 2e bd
       0.0145984795 -0.009040472 -0.042000655 -0.042604033
0001e0 f8 b9 7c bd 1a 29 a0 3c 66 9a 88 bd 8c 7c 75 bd
       -0.06170079 0.019550849 -0.06670074 -0.05993323
0001f0 a4 be 0e bd b9 65 de 3c 9f 68 2c bd 8d 2d 17 bd
       -0.034849778 0.027148115 -0.042091962 -0.036908675
000200 30 29 ca bc 63 97 62 bb 92 ea 49 3d b7 ea 02 3d
       -0.024677843 -0.0034575097 0.04929597 0.031962123
000210 7b 34 90 bd ea 48 85 bc 24 6c 10 bb a6 cd a2 bc
       -0.0704126 -0.01627012 -0.0022037113 -0.019873451
000220 80 40 13 bd 94 81 e7 bc 74 01 9f bc 57 36 8d bd
       -0.035950184 -0.02826003 -0.019409873 -0.0689513
000230 7c e8 dc 3c e9 40 b2 bc a3 f0 d2 3b 96 76 af 3c
       0.026966326 -0.021759467 0.0064373775 0.02141885
000240 46 0e 4a bd 0d a0 bd bc 8e b8 80 bd 2b 9e b4 bc
       -0.04933002 -0.023147607 -0.06285201 -0.022048077
000250 19 e0 22 bd 99 44 27 bc da 3d b3 bd 15 4c 31 bc
       -0.039764497 -0.010209226 -0.087520316 -0.010821362
000260 ae 2f 8f 3b c5 a2 33 bd 11 55 7b bd 5f e7 56 bd
       0.0043696975 -0.0438564 -0.061360423 -0.052466746
000270 ad 75 90 bd f8 d1 0e bd 65 68 56 bd 8e 7b 44 3d
       -0.07053695 -0.03486821 -0.052345652 0.047969393
000280 49 4e d1 bc 03 d9 38 bd 95 b1 d3 bc 85 46 69 bd
       -0.025550025 -0.045128834 -0.025841514 -0.05695202
000290 c9 cb da 3c 8a 60 f1 bc b1 6f 19 3d d9 97 3b bd
       0.0267085 -0.029464979 0.037460033 -0.04579911
0002a0 d4 df 4b 3b 1b 29 53 bc ba 18 a3 3c 39 8e 11 bd
       0.0031108754 -0.012888218 0.019909251 -0.035536025
0002b0 8d 33 59 bd 69 f5 48 3d 46 1a bb 3c 28 98 3e bb
       -0.05302768 0.049062166 0.022839677 -0.0029082391
0002c0 00 50 46 bd 0a 97 fd bc 19 ac 80 3b 43 07 ab 3c
       -0.048416138 -0.03095581 0.0039267656 0.020877486
0002d0 49 04 8d bd 56 28 6a bd 88 b9 4c 3d 4a 2d 33 3d
       -0.06885583 -0.057167374 0.049981624 0.043744363
0002e0 d7 6b 42 3d 94 11 0d 3d 86 f8 9e bc 7d 25 23 3d
       0.047466125 0.034440592 -0.019405615 0.039830673
0002f0 b1 3f 26 3d 61 34 50 bd 12 b3 89 bc e6 01 d0 3c
       0.040588085 -0.050831202 -0.01680902 0.02539153
000300 c9 0c 23 3d ef 73 7e bc ad 31 45 bc 49 3b 3d bd
       0.039807115 -0.01553057 -0.012035769 -0.046199117
000310 1f 54 65 bd fd 13 a8 3c 5c 5b d5 bb 58 a6 53 bc
       -0.055988427 0.020517344 -0.006511135 -0.012918077
000320 af a4 86 bd c9 83 77 3a 0c d4 c5 3c 85 23 48 3d
       -0.0657438 0.000944194 0.024148963 0.048862
000330 16 98 fe bc fb 48 3c bd e4 18 ef 3c cf 13 92 bc
       -0.03107838 -0.045968037 0.029186673 -0.017831711
000340 ad f2 85 3c 06 46 1e bd 9d 5a 28 3c f3 88 d5 bc
       0.016351068 -0.038641 0.01027551 -0.026066279
000350 1d 78 fd 3c 7b 8e 93 bd 02 85 f5 3c 0a 44 d1 3c
       0.030941064 -0.0720491 0.02997065 0.025545139
000360 d6 83 e4 3c 3b 51 55 bd e6 b2 f5 bb 11 2f 80 bd
       0.027894896 -0.05207942 -0.007498133 -0.06258977
000370 10 57 06 3c 74 05 42 3d d3 76 36 bc 72 94 35 bd
       0.008199468 0.04736848 -0.011136728 -0.04433102
000380 85 ef 33 3d 81 23 b4 3c d9 98 08 bd 58 16 da 3b
       0.043929596 0.021989586 -0.033348892 0.0066554956
000390 3a f9 f1 3c 29 5b 65 3b cb 56 93 bd d1 81 3b 3d
       0.029537786 0.0034996963 -0.07194289 0.0457781
0003a0 ba 67 77 bc d4 da 96 ba 39 87 85 bc 8a 60 9a 3c
       -0.015100414 -0.0011509308 -0.01629983 0.018844862
0003b0 0a 7d b2 3b 9e d3 44 bd 5a 2f 81 bd 91 16 be bb
       0.0054470347 -0.048053376 -0.0630786 -0.00580103
0003c0 8e 75 c0 3c 03 21 20 bd 07 2a 33 bd 91 3a 0b 3d
       0.023493554 -0.039093982 -0.043741252 0.0339914
0003d0 69 c7 33 bd 2e d0 72 bd db 37 d2 3c 3f cf 10 3c
       -0.043891344 -0.059280567 0.0256614 0.008838474
0003e0 0d ee 43 bd 21 3f 27 3d b0 29 bb bd 38 b5 82 bb
       -0.047834445 0.04083169 -0.09138811 -0.003988888
0003f0 2b 17 36 3c 96 93 cf bb c1 ee 9a bc b1 cb 4b bd
       0.011113922 -0.0063347323 -0.018912675 -0.049754802

fc2.bias f4 [300]
000000 c4 62 ae bd 45 f8 a9 bd ba 20 81 bd 62 a5 a2 bd
       -0.08514932 -0.08299307 -0.0630507 -0.079417005
000010 ba dc 84 bd b5 45 39 bd 06 98 36 bd 10 76 62 bc
       -0.06487413 -0.045232493 -0.044578575 -0.013822094
000020 e0 0e 81 bc 3e 36 9d bc e2 80 85 bd 54 27 97 bd
       -0.015754163 -0.019190904 -0.06518723 -0.07380548
000030 f0 92 4c bd 4d 20 ec bb d0 2b c5 bd 8a 2b 9b bd
       -0.049944818 -0.007205999 -0.09627497 -0.07576664
000040 92 e2 ae bb 8e 91 08 3d 45 4c 6e bd dc 0c 16 bc
       -0.005337068 0.033341937 -0.058178205 -0.009158339
000050 c1 24 88 bd d6 1e 59 3c f7 5b 68 3e a6 56 82 bd
       -0.06647635 0.013251981 0.22691332 -0.06364183
000060 20 02 05 bc 4d 22 cd bd 0c 44 91 3a 34 5c 9b bd
       -0.008118182 -0.10016308 0.0011082902 -0.07585946
000070 c4 33 85 bd 15 05 38 3c 6f dc a2 bd ff 38 99 bd
       -0.06504014 0.01123168 -0.079522006 -0.07481574
000080 e0 72 52 bd 9a 09 53 3f d0 5c 4d bc 34 46 52 3c
       -0.051379085 0.82436526 -0.012534335 0.012834121
000090 ff 5e c4 bc 8e f6 0f bd d5 e4 f4 bc 99 95 2c bd
       -0.023971079 -0.035147242 -0.029894272 -0.042134855
0000a0 be 9f 5e 3c 7a ab ae bc 90 de 96 3c b7 37 55 bd
       0.01358789 -0.021322 0.018416673 -0.052055087
0000b0 4a 2b 98 bd eb d6 03 3f ba 7d c7 b9 e7 15 72 bd
       -0.07430132 0.51499814 -0.0003804991 -0.05910292
0000c0 5e 70 b2 bd 9c c2 07 3c d3 95 bd bc 32 bf 7a bd
       -0.087128386 0.008286145 -0.02314273 -0.061217494
0000d0 38 f3 00 bd d7 65 65 3c e6 d0 85 bd 6c 42 2a bd
       -0.03148195 0.014001331 -0.06533985 -0.04156725
0000e0 3f b2 a6 bd 48 62 4e bd 4d 7f 17 bd f1 c8 88 bd
       -0.081394665 -0.050386697 -0.036986638 -0.066789515
0000f0 c4 96 92 bd e5 d6 66 3d c3 2e ed bc 03 71 25 bd
       -0.071576625 0.056357283 -0.028952962 -0.04039098
000100 ea 55 68 bd 9f 53 a5 bc 4e 07 fa bb 38 11 1b bd
       -0.05672256 -0.020181475 -0.0076302653 -0.037858218
000110 fb 60 f6 bc e9 3b 70 bd 24 e3 8e 3b 29 66 6d bd
       -0.03007554 -0.058650885 0.0043605734 -0.057958756
000120 b5 e1 20 bd a0 73 4e bd 13 f9 52 bd 15 6a 88 3b
       -0.03927775 -0.050403237 -0.051507067 0.0041630366
000130 f7 44 81 bd 23 6b 0f bd b1 e3 30 3b f3 f1 8d bd
       -0.06311982 -0.035014283 0.0026991183 -0.06930914
000140 f6 35 74 bd f1 23 30 bd 94 a3 71 3f 0b c3 8c bd
       -0.059621774 -0.043003026 0.94390225 -0.06873139
000150 61 fe 99 bd 7b 4d bb 3c 14 a3 c3 bc 57 8d 37 3c
       -0.07519222 0.022864094 -0.023881473 0.011203132
000160 b2 ba e7 bb 83 c0 72 bc 85 31 09 3f bb 98 99 bd
       -0.0070718164 -0.014816406 0.53591186 -0.07499834
000170 ea 78 e9 bc 7e 98 30 bd e9 c3 10 bd ea ff fe bb
       -0.02850004 -0.043114178 -0.035343084 -0.007781972
000180 b9 82 c0 bd 1b ff 9d 3c 32 e3 13 bc e2 97 e6 3d
       -0.09399933 0.019286683 -0.009026336 0.11259438
000190 45 06 07 bd c0 90 73 bd 63 26 81 bd 1b b7 af bd
       -0.032964963 -0.059464216 -0.0630615 -0.085798465
0001a0 fa 38 88 3e 7e 11 96 3b 93 35 31 bd 86 91 c3 3d
       0.2660597 0.004579722 -0.043263983 0.09549241
0001b0 3a 1a 86 bc 05 3f 42 bc 0e 4f 65 bc 94 fc 1d bc
       -0.016369928 -0.011855845 -0.013995899 -0.009642739
0001c0 2a 9f 86 bc 0a 02 ad bb 4d 7e d0 bc b0 f9 50 bd
       -0.016433317 -0.005279784 -0.02545085 -0.05101937
0001d0 7d 5d 1b bd 9b 1d bb 3b ab 67 4d bd ec b4 9b bd
       -0.037930954 0.0057103164 -0.050147694 -0.076028675
0001e0 a1 0f 54 bd 59 1e b8 bb 60 3a 25 3c f4 9e 89 3e
       -0.051772717 -0.005618852 0.0100847185 0.26879084
0001f0 17 99 a6 bd fe bf 6a bd 05 fe 14 bd 24 fb 54 bc
       -0.08134668 -0.057312004 -0.036375064 -0.01299933
000200 fc 9b 17 bc 24 ec bc bc 4c 90 29 3c 7b b8 1a 3d
       -0.009253498 -0.02306182 0.010349344 0.03777359
000210 a8 e7 ca bc c8 00 b1 bd 5f af 9d 3d de 9d 21 bb
       -0.024768665 -0.08642727 0.07699465 -0.0024660747
000220 4e 81 fb bc 35 0e 13 3b 67 5f bc bc 52 8d a4 bc
       -0.030701306 0.0022438888 -0.02299471 -0.020086918
000230 ab 77 25 bd c5 b9 8c 3c 56 af 97 bf d0 3a ab bc
       -0.040397327 0.017178426 -1.1850383 -0.020902067
000240 af ad a7 bd 69 78 49 bd 83 40 af bc b7 c7 0f bd
       -0.081874244 -0.049187098 -0.021393066 -0.035102572
000250 39 13 8e bd 04 a6 1c bc 71 ac 79 bd fe b9 32 bd
       -0.0693726 -0.009561066 -0.06095547 -0.043634407
000260 5b 53 f3 3c 78 a9 85 3c 29 95 b2 3b ca 64 7a 3c
       0.029702833 0.01631616 0.00544991 0.015282819
000270 39 a6 33 3d 70 bc 89 bb fc 77 09 bd cc 86 93 bd
       0.043859694 -0.0042033717 -0.03356169 -0.07203445
000280 68 16 1d bd 76 0a 89 3b 9f e9 95 bd a4 79 91 3b
       -0.038351446 0.0041821552 -0.0731995 0.0044395495
000290 72 c2 bb bd ac 80 aa bd c9 55 fa bc 2f 53 2f bd
       -0.09167947 -0.083253235 -0.030558484 -0.04280394
0002a0 d0 ea 00 3e 41 27 4e bd d4 e4 13 bd 2a b5 82 bd
       0.12589574 -0.050330404 -0.0361069 -0.063822106
0002b0 86 3e ae bc a5 76 9f bc d5 65 3c bd 0a 65 26 bb
       -0.021270048 -0.019465754 -0.045995552 -0.0025389814
0002c0 62 4e 68 bd 6e 3f 77 bc 28 ee 44 bb 2c 34 1a 3b
       -0.056715377 -0.015090806 -0.0030049179 0.0023529632
0002d0 8e a6 bb bb d0 e5 6a bd 28 3d 3d 3e 63 42 67 bc
       -0.005726642 -0.057348073 0.1848036 -0.014114949
0002e0 a9 9a 70 bd ae b3 12 3e b1 0e 12 bd cb 6d a9 3c
       -0.058741245 0.14326355 -0.035658542 0.020682236
0002f0 0e a3 0a bd 72 ab 13 bd 73 aa 3a bd 53 8f 2b bd
       -0.033846907 -0.036052175 -0.04557271 -0.04188473
000300 a9 8a 94 3f a4 28 af 3b 42 12 40 bd 01 90 89 bc
       1.1604816 0.005345421 -0.046892412 -0.0167923
000310 46 44 5d bd fe c4 be bc cd 3c b5 bd 5b d6 28 bd
       -0.05402019 -0.023287293 -0.088494875 -0.04122005
000320 29 0a 88 3f 43 82 0d bd f2 31 58 bd 2f cb 1d bd
       1.0628101 -0.034548055 -0.052782007 -0.03852385
000330 a2 1c 8f bd cc 3a 98 bd 6c 6f a8 bd 35 c4 4b bd
       -0.06987883 -0.074330896 -0.08224377 -0.049747664
000340 37 c0 a0 bb 26 e7 7b bd 6a bf ca bc 49 0d d7 bb
       -0.0049057263 -0.061499737 -0.024749476 -0.006562863
000350 de 5d ce bd 04 05 78 bd 33 0f 40 bc 9c 07 8d bc
       -0.100764975 -0.06055166 -0.011722374 -0.017215542
000360 18 ff 5e bd 57 8a 25 bd a8 58 ca bd a5 b6 6e bd
       -0.054442495 -0.040415134 -0.09880191 -0.058279652
000370 45 fd 36 3c 16 a7 44 bc d5 87 2b bd c4 d1 89 bd
       0.011168783 -0.012002727 -0.041877586 -0.06729463
000380 37 39 52 3d 84 12 80 bd 2c d7 60 bd ee b6 39 bd
       0.051324096 -0.062535316 -0.054892704 -0.04534047
000390 1f c9 49 3b a3 51 2f bd 6f c9 a4 bd 72 2d fa bb
       0.0030790044 -0.042802464 -0.08046233 -0.007634812
0003a0 74 73 60 bd 76 04 32 be e9 d8 de bb fc fd 61 bd
       -0.054797605 -0.17384514 -0.00680076 -0.05517386
0003b0 26 03 af 3c 23 61 aa 3c 00 13 08 bd 8f d1 69 3c
       0.021363806 0.020798272 -0.033221245 0.014271154
0003c0 40 dc db bd 47 21 ab bd 08 b1 a4 bc 67 ba d6 3c
       -0.10735369 -0.083559565 -0.020103946 0.02621193
0003d0 67 3c 8f bd 45 02 79 bd 39 b2 6a bd 2a 09 8b bd
       -0.06993943 -0.06079318 -0.057298873 -0.06788857
0003e0 3d 1b 80 bd e4 a1 48 bd b5 d4 e0 bd a3 3c 7f b9
       -0.06255195 -0.048982516 -0.10978071 -0.00024341284
0003f0 1b 5a 06 3b cb e9 21 3b d3 59 cf bd e7 1d b5 bc
       0.0020500484 0.0024706002 -0.101245545 -0.022108985

fc3.weight f4 [1, 300]
000000 9d 33 e8 bb d8 c5 50 3c 65 53 33 3c ff 43 50 3c
       -0.007086231 0.012742482 0.010945176 0.012711524
000010 fc f2 ea bc a1 ff 60 ba ad 84 c3 3b d2 58 c1 3b
       -0.028680317 -0.00085830136 0.005966744 0.005900481
000020 58 90 9a bc c3 f3 80 3c 0e 40 7e bb ec ca 85 3a
       -0.018867657 0.015741235 -0.0038795504 0.001020757
000030 bc 5e 6d 3c 33 68 30 bc e6 82 46 3c fd 14 38 3c
       0.0144879185 -0.0107670305 0.01211617 0.011235473
000040 5c d0 af 3b a3 c3 58 3c d1 a7 ee bb 13 79 3f bc
       0.0053654145 0.013230237 -0.007283189 -0.011686581
000050 a7 38 24 3b 4d 60 a4 3c b1 74 ce 3c cd b1 de 3b
       0.0025058181 0.020065451 0.025202127 0.006796098
000060 af 62 58 3a 43 ae b3 3b a0 05 00 bc 51 da 83 3c
       0.0008254451 0.00548342 -0.007813841 0.016095312
000070 8c f8 73 bc 28 4e c7 3b 59 42 c7 3b 0a dc 15 3c
       -0.014890801 0.006082315 0.0060809073 0.0091467
000080 44 ca 83 3c dd fe 1e bc db 1b ee bc a0 70 a0 bc
       0.016087659 -0.009704319 -0.029066017 -0.019584954
000090 83 ed c2 bc 91 a5 e8 ba 6d cb 75 3c 2b 9c 28 bc
       -0.023794895 -0.0017749538 0.015002114 -0.01029114
0000a0 4b 25 8b 3c 20 32 87 bc 7a 97 7e bb e0 89 4a bc
       0.016985556 -0.016503394 -0.0038847611 -0.0123619735
0000b0 d6 e5 57 bb 6b 3a 20 3c 96 59 e3 3c a9 95 41 3c
       -0.003294339 0.009779553 0.027752679 0.011815467
0000c0 42 75 b6 3b 3c 28 03 bd 1b e0 dc ba bd 27 81 bc
       0.0055681774 -0.032020792 -0.0016851457 -0.015766019
0000d0 9a 3b 11 bc 4a 97 e9 ba b8 56 95 bc c6 3d 37 3c
       -0.008864308 -0.0017821577 -0.018229827 0.0111841615
0000e0 9b 53 39 3c 08 00 e6 bb 22 34 aa bb 30 c0 2a 3c
       0.011311437 -0.0070190467 -0.005194203 0.010421798
0000f0 44 cf 55 bc 6e 4c 01 bb 49 b9 33 3b 21 91 30 3c
       -0.013049904 -0.0019729394 0.002742367 0.010776789
000100 fa 29 e1 bc 20 2b ed b7 f8 df 98 bc e7 b1 5d ba
       -0.027485836 -2.8272683e-05 -0.018661484 -0.00084569905
000110 fd 86 68 3c 95 40 68 bc 22 0d 89 3c 02 67 8b 3c
       0.01419234 -0.014175554 0.016729895 0.017016891
000120 29 a8 1f bc d2 3d 51 bb f2 6f cc 3b a3 85 26 bc
       -0.009744682 -0.0031927717 0.006238931 -0.010163697
000130 ba 5d e0 bc 17 46 8c bc ec df 12 3a 57 88 a9 3a
       -0.027388442 -0.017123265 0.0005602825 0.0012934309
000140 26 be 14 3d ba 7d 59 3c 5a e2 5d bc 30 58 0c 3c
       0.036314152 0.013274604 -0.013542736 0.008565947
000150 f0 da d0 bc 40 a4 91 3c 69 66 b4 bb 8f 3c 50 bb
       -0.025495023 0.017778516 -0.0055053723 -0.0031774377
000160 e4 a8 00 bc 0d c4 59 bc b8 09 a4 bc 76 7d b8 bb
       -0.007852767 -0.013291371 -0.020024166 -0.0056301905
000170 62 34 3e bc 22 02 72 3b 7d 16 6b 3b 7f 01 43 bc
       -0.011609169 0.003692754 0.0035871558 -0.011902212
000180 e5 da fe 3b a6 a4 e5 3b a6 71 e4 bb 3c ff dd bc
       0.007777559 0.007008153 -0.0069715558 -0.027099244
000190 4f 77 54 3c b2 d4 1f 3c a4 fa d3 bc 88 d3 9e bb
       0.0129678985 0.0097553 -0.02587635 -0.004846994
0001a0 38 7e ce bb 22 01 e6 3c 51 e8 c4 3c 86 cb 78 bc
       -0.0063016675 0.028076712 0.024036558 -0.0151852425
0001b0 33 14 c6 ba 61 70 44 3d 8a 50 2d bc eb 57 27 3c
       -0.0015112221 0.047958735 -0.010578284 0.010213832
0001c0 fe 89 36 bc e3 e9 0f bc 83 8f 8b 3b be fe ca bb
       -0.011141298 -0.00878379 0.0042590513 -0.0061949184
0001d0 c1 a5 a0 bc 35 04 2a bc 76 b6 d7 bb bf 00 29 bc
       -0.019610288 -0.01037698 -0.0065830303 -0.010315119
0001e0 2f e1 83 bc e1 e0 3f bc f8 5e ba bb bc df c1 3c
       -0.016098587 -0.01171133 -0.0056875907 0.023666255
0001f0 98 2a 40 3c e8 98 41 3c f9 a6 71 ba 57 c9 db 3b
       0.011728905 0.011816241 -0.0009218301 0.006707351
000200 da 56 41 bc a7 dd c8 3b 28 f3 61 bc c8 19 6a bc
       -0.011800492 0.0061299386 -0.013790883 -0.014288373
000210 48 33 03 bb 7b ff 04 bc a1 e0 53 3c 56 68 2a bc
       -0.002001958 -0.008117552 0.012931974 -0.010400852
000220 8b a1 fb bb ed dd 7d 3c 27 bb c6 3b 9d 40 3e 3b
       -0.0076791695 0.015494806 0.0060647908 0.0029030212
000230 4e 03 02 bd fb 29 5c bb 1d fd 81 3c e9 03 10 3c
       -0.031741433 -0.0033594358 0.015867764 0.008789995
000240 c0 b7 85 bc ed 02 b4 bb 66 32 8b bc ed 19 4f 3a
       -0.01632297 -0.005493513 -0.016991805 0.00079002866
000250 16 c9 0c bc 0a 05 dd 3b a3 73 97 ba ac ab e4 3b
       -0.0085928645 0.0067449855 -0.0011554848 0.0069784727
000260 36 22 e5 bc 25 fe ac 3b ee 67 6d ba 0a a2 95 bc
       -0.027970415 0.00527932 -0.0009056319 -0.018265743
000270 87 bf 67 bc 37 7a 4a 3c 80 f8 0a 3c 4b a3 c9 bb
       -0.014144785 0.01235824 0.008482099 -0.0061534992
000280 c9 53 d3 bc c2 a7 5d bc 82 d9 1c 3d ba 8e 23 3c
       -0.025796788 -0.013528766 0.03829337 0.009982759
000290 a1 e0 6f 3c a9 38 23 3c 77 e8 80 bc 9d 76 9b bc
       0.014640958 0.009962239 -0.015735848 -0.018977458
0002a0 f4 28 d3 bc d0 38 68 ba 58 3e dc ba 7c 41 75 3c
       -0.025776364 -0.00088585634 -0.0016803248 0.014969226
0002b0 0a 81 b7 3a ff a5 34 bc 45 26 bc 3b 9d 36 2f bc
       0.0014000249 -0.011025905 0.005741867 -0.010694173
0002c0 0c 9f 17 3d f3 ff c7 3c e8 28 a9 3a fc a0 78 bc
       0.037016913 0.024414038 0.0012905868 -0.0151751
0002d0 f4 59 68 bb 34 93 02 3b d1 34 54 3d c7 25 99 3b
       -0.0035454007 0.0019924166 0.051808182 0.004673693
0002e0 a4 f4 c8 3b 06 8e ad bc 1e 55 0e bb 40 b7 61 b9
       0.006132679 -0.021185886 -0.0021718214 -0.00021525938
0002f0 41 d1 ff bb 59 ad fe bb 8e c8 9e ba 1a 89 fa 3b
       -0.0078069274 -0.0077721295 -0.0012114213 0.0076457383
000300 62 45 18 bd 3f cd 7e 3c 7b 0f 11 3b db 42 61 bb
       -0.037175544 0.015551864 0.0022134471 -0.0034372124
000310 e1 81 93 bc ec bd 5f ba b3 cf b7 3b 05 33 25 3b
       -0.018006267 -0.00085350755 0.0056094765 0.0025207412
000320 51 fe 2c bc d6 55 a4 3b 7c ec 6c b9 40 ab 96 3c
       -0.010558681 0.0050151153 -0.00022594811 0.018392205
000330 d6 08 12 ba ae 88 36 bc f7 ed 58 3c b1 df 99 bc
       -0.00055707747 -0.011140985 0.013240329 -0.018783422
000340 20 88 28 3c d6 f9 9a bc fa d7 82 bb 42 2d 5e 3c
       0.010286361 -0.01891796 -0.0039930316 0.013560595
000350 40 70 f3 3b 6b 52 81 bc ae d5 c4 bb 5f 06 96 bb
       0.0074291527 -0.01578637 -0.006006918 -0.004578396
000360 4f b5 8b 3c a3 db e8 3b b6 71 c1 3c 59 c0 c2 bb
       0.017054228 0.007106261 0.023613792 -0.00594334
000370 bf cf 9b 3c 32 fe c2 bb 9e 87 1f bc b6 26 e5 bb
       0.01901996 -0.0059507126 -0.0097369235 -0.00699314
000380 63 25 da bc a7 31 2e 3c 18 fa 27 3b c2 e5 45 bc
       -0.026629156 0.010631955 0.0025631245 -0.012078704
000390 87 46 b9 3b ac 54 06 3c 69 5a 66 bb 36 93 86 bb
       0.0056541595 0.008198898 -0.0035149103 -0.0041069044
0003a0 18 18 8b 3c 8f ef 64 3c 82 66 64 39 ca 22 88 bc
       0.016979262 0.013973131 0.00021781962 -0.016618151
0003b0 e1 dc f6 bb ed 4e e1 3c 46 43 91 3c eb 3d 89 3c
       -0.007533655 0.027503455 0.017732274 0.016753158
0003c0 55 1c 90 bc d0 14 5e 3c 11 02 09 bc 6a ec 54 bc
       -0.017591635 0.013554767 -0.008362309 -0.012995819
0003d0 42 a0 8e 3c 4e a7 0d bc a0 47 e5 bb d4 70 cf bc
       0.017410401 -0.008645846 -0.0069970638 -0.025322355
0003e0 0b c9 0a bd ce 26 f7 b9 7e 04 20 bb cc e5 e9 39
       -0.033883136 -0.00047140423 -0.002441674 0.00044612435
0003f0 ff 47 0a 3c 59 74 eb 3a ba 6c 86 3c 09 bb fb 3b
       0.008440017 0.0017963751 0.016409267 0.0076822084
